trained_models/1.pth (torch, 2911 bytes, 4 tensors)

model.0.weight f4 [32, 7]
0	0x3dd67db0	0.10473192
1	0xbe378aa1	-0.17923976
2	0x3ec072d6	0.37587613
3	0xbdb9c206	-0.0907021
4	0xbe5f9656	-0.21834692
5	0x3d8d359c	0.06894991
6	0xbde95eca	-0.11395033
7	0x3c443f48	0.011977978
8	0x3e1573fe	0.14595029
9	0xbea10a7b	-0.31453308
10	0x3e6e72f5	0.2328604
11	0xbe0ab057	-0.13543831
12	0x3d94948e	0.07254897
13	0xbdea441a	-0.114387706
14	0x3e713c68	0.235582
15	0xbe86bf07	-0.26317617
16	0x3ce6e1fd	0.028183931
17	0x3cda7cca	0.026670832
18	0x3e3b783d	0.18307586
19	0x3e0968dc	0.13418907
20	0xbeaf4d3a	-0.34238607
21	0x3d794308	0.06085494
22	0xbe82b173	-0.25526008
23	0x3e6ce644	0.23134714
24	0xbc6b7443	-0.014370981
25	0xbd86a6bd	-0.065747716
26	0xbe79c6d6	-0.24392256
27	0xbe961868	-0.29315495
28	0x3e9a968b	0.3019298
29	0x3d6ac97c	0.057321057
30	0xbe109163	-0.1411796
31	0xbdf796bb	-0.120892964
32	0xbe84c1a0	-0.25928974
33	0x3e99dd2f	0.30051562
34	0x3e24f741	0.16109945
35	0x3dd31947	0.10307556
36	0x3e0655e1	0.13118698
37	0xbebf1b0c	-0.37325323
38	0x3cf6dc92	0.030134473
39	0xbdc4f803	-0.09617617
40	0xba2aa631	-0.000650975
41	0x3e186e5c	0.14885849
42	0x3d08f945	0.033440847
43	0xbe9dbe63	-0.30809316
44	0x3e757eda	0.23974171
45	0xbe878106	-0.26465625
46	0x3e4ab029	0.19793762
47	0x3e8ee757	0.27910873
48	0x3cb2e7b7	0.021839006
49	0xbe10e13d	-0.14148422
50	0xbe9cf88b	-0.30658373
51	0x3e003a16	0.12522158
52	0xbd8218be	-0.063523754
53	0x3ded58d0	0.11589205
54	0xbdcd5edb	-0.10027858
55	0x3e414e00	0.18877411
56	0x3e5d0d5f	0.21587132
57	0x3e70a0c7	0.23498832
58	0xbea84111	-0.32862142
59	0xbe435c33	-0.1907814
60	0xbe3fa3c4	-0.18714815
61	0x3b6d5991	0.0036216716
62	0xbda45237	-0.08023494
63	0xbe7adce0	-0.2449832
64	0x3e6caa84	0.23111922
65	0x3de93da2	0.11388709
66	0xbe8e6f01	-0.27819064
67	0x3e6d3d34	0.23167878
68	0x3e6ebc1b	0.23313944
69	0xbe7ac364	-0.24488598
70	0x3e2bbd93	0.16771536
71	0xbe9b3bad	-0.30318967
72	0xbdd13ddf	-0.10216879
73	0x3e36bffe	0.17846677
74	0x3e8bbcc1	0.27292445
75	0x3e465f50	0.19372296
76	0xbc529b1b	-0.012854363
77	0xbe45edfe	-0.19329068
78	0x3e221963	0.15829997
79	0xbd4e94c2	-0.050434835
80	0x3dcb5cb5	0.09929792
81	0xbb38854f	-0.002815563
82	0x3db9e200	0.09076309
83	0x3dbb89a9	0.09157116
84	0xbd5db089	-0.054123435
85	0x3e400f1c	0.18755764
86	0x3eb80a63	0.35945424
87	0xbead1684	-0.3380624
88	0x3e97c153	0.29639682
89	0x3e4e04a8	0.20118964
90	0xbebdd42e	-0.37075943
91	0xbe1401a6	-0.14453754
92	0x3c09afa5	0.008403693
93	0xbc8a87ef	-0.016910521
94	0xbe00ca8d	-0.12577267
95	0xbebe4e96	-0.3716933
96	0xbea9242f	-0.33035418
97	0x3e3b4d90	0.18291306
98	0xbe9d1102	-0.30677038
99	0x3e98ac44	0.29818928
100	0xbca20878	-0.019779429
101	0x3d14279f	0.036170598
102	0x3d230940	0.039803743
103	0xbce95d63	-0.028486913
104	0xbe55db7c	-0.20884508
105	0x3e5c5947	0.21518432
106	0x3e5289b0	0.20560336
107	0x3e06fecc	0.13183135
108	0xbd840e9d	-0.064481
109	0x3e3f2e7b	0.18670075
110	0xbe925505	-0.2858049
111	0x3d83c625	0.064342774
112	0xbebdee54	-0.37095892
113	0xbda11553	-0.078653954
114	0xbd4a9ad8	-0.049464077
115	0x3d12448c	0.035709903
116	0x3c660891	0.014040128
117	0x3e050975	0.12991889
118	0x3e66c69e	0.22536704
119	0xbe46d761	-0.19418098
120	0xbb0f46cd	-0.002186227
121	0x3db79293	0.08963504
122	0xbe1298b9	-0.14316072
123	0xbe32fdac	-0.1747958
124	0x3d9232f1	0.071386226
125	0x3e98b31e	0.29824156
126	0xbeae705d	-0.340701
127	0x3e237d78	0.15965831
128	0xbe87ac7a	-0.26498777
129	0xbea676e7	-0.3251259
130	0x3e7cb906	0.24679956
131	0x3e2c1c61	0.168077
132	0x3e136a42	0.14396003
133	0xbd17ba42	-0.037042864
134	0xbdf956c7	-0.121747546
135	0xbe734f09	-0.23760618
136	0x3e1b95ed	0.15193911
137	0xbc5fdfd5	-0.013664206
138	0x3dca9712	0.098920956
139	0x3e76d9d5	0.24106534
140	0xbe5d0878	-0.21585262
141	0x3dcd7032	0.10031165
142	0x3e92f1c7	0.28700086
143	0x3e8ee432	0.27908474
144	0x3ea4fa8e	0.32222408
145	0xbeaebe03	-0.34129342
146	0xbe47450e	-0.19459936
147	0x3ea3d3ea	0.31997615
148	0xbed5b9a8	-0.41743207
149	0x3ea5914e	0.3233742
150	0x3dd51ea7	0.10406237
151	0xbdcaaf70	-0.09896743
152	0x3eb311fc	0.34974658
153	0x3d5cb5f8	0.053884476
154	0xbe11159d	-0.14168401
155	0x3e8cb8a6	0.27484626
156	0x3e836c5e	0.25668615
157	0xbe352164	-0.17688519
158	0xbe5324b0	-0.20619464
159	0xbe3a756e	-0.18208858
160	0xbe82ea54	-0.25569403
161	0x3e648a4a	0.22318378
162	0xbdebc776	-0.115126535
163	0x3e1b205c	0.15149063
164	0xbe9fa034	-0.31176913
165	0xbcd21858	-0.025646374
166	0xbe993376	-0.29922074
167	0x3eaa92ea	0.33315212
168	0x3e61e491	0.22059847
169	0x3eb3d3e6	0.35122603
170	0xbd77e7c6	-0.06052377
171	0xbe04fc49	-0.12986864
172	0xbed794a7	-0.421056
173	0x3e90e551	0.28299955
174	0x3dee216e	0.1162747
175	0x3e62164b	0.22078817
176	0xbda8cb3b	-0.08241888
177	0xbd6c0558	-0.057622284
178	0xbe9e5062	-0.30920702
179	0x3ea824df	0.3284063
180	0xbe28f522	-0.16499761
181	0x3e956574	0.29178965
182	0x3e982af1	0.29720262
183	0xbe0538ba	-0.1300992
184	0xbe24e438	-0.16102684
185	0xbe946d0f	-0.28989455
186	0xbc114876	-0.008867374
187	0xbe410f39	-0.18853463
188	0xbd225a27	-0.039636757
189	0x3eaba022	0.3352061
190	0xbec0b68d	-0.37639275
191	0x3eb0c6a3	0.34526548
192	0x3da40051	0.08007873
193	0x3d25be3e	0.040464632
194	0x3e04ca0e	0.12967703
195	0xbe797e0b	-0.24364488
196	0x3db0b18c	0.086276144
197	0x3e34cc30	0.17656016
198	0xbeb7379e	-0.3578462
199	0xbd7823ce	-0.06058102
200	0x3d87df6b	0.066344105
201	0x3ea69410	0.32534838
202	0xbe8f056d	-0.27933827
203	0xbe745a5a	-0.23862591
204	0x3e3b7f7e	0.18310353
205	0x3e8d42bb	0.27589974
206	0xbd2175d1	-0.039419
207	0x3e859980	0.26093674
208	0x3e368af8	0.1782645
209	0x3e175842	0.14779761
210	0xbe9e00aa	-0.30859882
211	0xbe7f0d17	-0.24907337
212	0xbd01ec36	-0.03171941
213	0xbdd69270	-0.104771495
214	0xbd7b5916	-0.061364256
215	0x3e8c9f45	0.27465263
216	0x3e7e572e	0.24837944
217	0xbe757e1e	-0.23973891
218	0x3def3f36	0.116819784
219	0x3e8570f1	0.2606273
220	0x3e07750c	0.13228244
221	0x3ea6064f	0.32426688
222	0xbe61947b	-0.22029297
223	0xbde17d7a	-0.11010261

model.0.bias f4 [32]
0	0x3e56ce13	0.20977049
1	0xbe2b42b0	-0.16724658
2	0x3e04212d	0.1290328
3	0x3d25d88f	0.04048973
4	0xbd16c5db	-0.036809783
5	0xbe8d6b58	-0.2762096
6	0x3e4d66df	0.20058773
7	0xbea24e58	-0.31700397
8	0x3eb83786	0.3597986
9	0x3ea4f346	0.32216853
10	0x3ba1cd96	0.004937838
11	0xbe98c53c	-0.29837978
12	0x3e54dd21	0.20787479
13	0x3ea0860d	0.31352273
14	0x3d82d416	0.063881084
15	0x3c066440	0.008202612
16	0x3e60a021	0.21936084
17	0x3e54f614	0.20796996
18	0xbe516616	-0.20449099
19	0xbdd0f75d	-0.10203431
20	0x3e10329a	0.14081803
21	0x3cb69a98	0.022290513
22	0xbe8842cc	-0.26613462
23	0x3e199465	0.14998014
24	0xbdc0a8c3	-0.09407189
25	0x3d09b4fc	0.033619866
26	0xbce69831	-0.028148742
27	0xbe17deb6	-0.14831051
28	0xbe85c3ac	-0.26125848
29	0xbbd7604e	-0.0065727597
30	0x3e684533	0.22682647
31	0x3e2c9941	0.16855337

model.2.weight f4 [3, 32]
0	0x3d8df0ae	0.06930672
1	0x3d56b93b	0.052422743
2	0xbe193be7	-0.14964257
3	0xbda9b863	-0.08287122
4	0xbe057578	-0.13033092
5	0xbcd4edc7	-0.025992287
6	0x3e2afed0	0.16698766
7	0xbd8db81a	-0.0691988
8	0xbcccfd2d	-0.025023067
9	0x3d01ba6a	0.03167192
10	0x3dedafaa	0.11605771
11	0x3beab8c6	0.00716314
12	0x3ddc7a89	0.10765559
13	0xbcb1abb7	-0.021688325
14	0x3b68d6fa	0.0035528527
15	0xbbb832f4	-0.0056213085
16	0x3cc6e392	0.024278436
17	0x3cf4084a	0.029789109
18	0x3d59c135	0.053162772
19	0xbd9b05d2	-0.075694695
20	0xbc972866	-0.01845188
21	0xbb8e14fa	-0.0043359967
22	0x3d20d6ce	0.039267354
23	0x3e181032	0.14849928
24	0xbda938d0	-0.08262789
25	0x3d9a6cf8	0.075403154
26	0x3ca994e9	0.020700889
27	0x3c67948a	0.014134536
28	0xbc508fb5	-0.012729575
29	0x3d82af25	0.063810624
30	0xbdc0d805	-0.094162025
31	0x3d588a46	0.052866243
32	0xbd9d8d56	-0.07692973
33	0xbd453bb1	-0.04815263
34	0xbd645216	-0.055742346
35	0xbdfaede0	-0.12252402
36	0x3e202f9a	0.15643159
37	0xbda7b5a8	-0.08188945
38	0x3cbe6acc	0.023244284
39	0xbe0468ee	-0.12930652
40	0xbd230c6d	-0.039806772
41	0xbd2277d2	-0.03966505
42	0x3dff273e	0.12458657
43	0xbda68fd9	-0.081329055
44	0x3df5bad7	0.119985275
45	0xbc946763	-0.018115705
46	0x3daea042	0.085266605
47	0xbdc8a2e6	-0.097966954
48	0x3b43b4f2	0.002986249
49	0x3e3ee7fa	0.1864318
50	0x3e372f4a	0.17889133
51	0xbbdfe80b	-0.0068330816
52	0xbdadd512	-0.084879056
53	0x3e473e81	0.19457437
54	0xbd93269b	-0.07185098
55	0xbe25f81d	-0.16207929
56	0x3e586573	0.2113245
57	0x3c8a83c3	0.016908532
58	0x3c5a4d63	0.0133241145
59	0x3e1d8873	0.15384082
60	0x3df96c27	0.121788315
61	0xbdaf28f6	-0.085527346
62	0xbd8a54f6	-0.06754486
63	0xbda76be5	-0.08174876
64	0xbe23ee8f	-0.16008972
65	0x3db0953b	0.086222135
66	0x3d363594	0.04448469
67	0xbd344a84	-0.044016376
68	0x3c87577d	0.01652121
69	0xbcd3075f	-0.02576035
70	0x3d39906e	0.045303755
71	0xbdae4341	-0.085089214
72	0x3d2a28d4	0.041542843
73	0x3db67f44	0.08910993
74	0x383f2971	4.5576544e-05
75	0xbd911e71	-0.07085884
76	0xbd7b3f84	-0.06133987
77	0xbdbf26ea	-0.09333594
78	0xbd325801	-0.04354096
79	0x3ca9fd9e	0.020750817
80	0xbd149943	-0.036278974
81	0x3dc6dfd9	0.09710664
82	0x3dd9d670	0.10636604
83	0xbd993f15	-0.07482735
84	0xbda61796	-0.081099674
85	0xbe2c53c6	-0.16828832
86	0xbde7d7a0	-0.11320424
87	0x3ce428eb	0.027851542
88	0x3e598ca6	0.2124506
89	0x3cb203af	0.021730272
90	0x3d723f74	0.059142545
91	0xbe118246	-0.14209852
92	0xbe01848f	-0.12648223
93	0x3df85cfb	0.121271096
94	0xbd37b158	-0.044846863
95	0x3d26f406	0.040760063

model.2.bias f4 [3]
0	0xbc189b48	-0.009314366
1	0x3c8b3121	0.0169912
2	0xbddaeecf	-0.106900804
