trained_models/1.pth (torch, 2911 bytes, 4 tensors)

model.0.weight f4 [32, 7]
00000000: b546 b73e 4fe6 293e ce54 393e 454e 85be
00000010: c850 f1bb 9310 94be 7c0c 60bc 4350 603e
00000020: 76bd a73e 6cc8 9e3e e27c 063e cd98 6f3d
00000030: 9f76 46be 0fed c83d 5c2d 263e 1058 8f3e
00000040: dc74 23be 894d 3fbd a92b 1bbd 2dab e03d
00000050: 3dfd 3fbb 89c5 44be 7b3f 01bd 4bfa 2d3d
00000060: dbc8 61be da26 703e 40a2 8c3b ae48 f83c
00000070: aa08 26be fd24 863e 3d99 373e bf44 9dbd
00000080: c66e b8bd 0ba5 fa3c 59b8 a73d bac3 463e
00000090: 5a77 26be 64c0 063d 51b8 b8bd 04d8 86bd
000000a0: c34e 81be 231f 51be 31b7 aabe 9e8c e03d
000000b0: 64d2 093e e550 93be 8d11 333e 4176 2a3e
000000c0: ae18 abbe 7006 b3bd 7d5b 1dbe ac9b 45be
000000d0: cf19 d33d 751d 3ebe c4c4 bd3d 6d92 babe
000000e0: 70e9 5abd 7c83 113e 6db3 fb3b 3ea7 883d
000000f0: fdfc bf3e 6365 21be 6ee6 703e 7d3c f03c
00000100: 1904 25bd f8e9 1e3d 04f6 a6bc 0e9e 8fbe
00000110: 0921 4a3c aa9a adbe f39f a5be 150d 88be
00000120: 82bd 80bd 62f6 383e 9544 bcbe f17f 403e
00000130: b602 893e 1749 023e 5531 503e 38a1 ba3e
00000140: 551a 8c3e 2142 3c3e b7aa c7be 006d c9be
00000150: d2a9 8d3d 7587 7fbd 823c 91bc e30d c13d
00000160: 2d16 25be ef9d a63d d31f 9e3e ec1d 8abe
00000170: 457d 303e e933 d83d 6e0e 1dbe 6e66 523e
00000180: f47f ecbd 2227 7dbe 75e4 693e 483b b2bd
00000190: ae2f 99bd 1b22 adbe 9733 8abe 5c5d 98be
000001a0: b29d d3bd a958 fbbc 3c30 313e bef4 86be
000001b0: 5214 d53d 7ab5 d13d b7e5 47be 59a7 1c3c
000001c0: ec7f a73e c518 6bbe 9147 fabd 319c 83be
000001d0: 7899 b53e 52fd 7fbd d5e9 dbbd 027e 4c3e
000001e0: ffba ba3d 1899 9c3e 1c5c 19be a00c a9be
000001f0: b909 8b3e 7c29 5cbc 04f6 00bd a9df 533e
00000200: 7ee7 803e 9d3c 11be a731 37be 9ebc f8bc
00000210: 00b3 c0bd 9ff5 7f3e 66a7 1bbe 53eb 86be
00000220: 8740 cbbd 00d6 7abe 43c6 a23e ded5 33bd
00000230: 471c 673e e6a1 53be 06d0 483e 387c 4fbe
00000240: 7ab4 b5be 12ad 40be 45f0 78be 3ffa a43e
00000250: 11c9 853e 8642 e7bd ead6 56be c591 ad3e
00000260: 0cb7 3a3e d060 a6bc de14 943d a1fa 63be
00000270: 028b e03c 5f17 173d 54c4 363e bda6 b4bd
00000280: 5765 b5be dcc7 a73e f985 b5be a7f7 b6bc
00000290: 2311 b93e 9887 c2bc 97fe 243d 80f5 673e
000002a0: 3ea9 2e3e 5149 e2bd fce3 3d3e 08ee 08bd
000002b0: 41db 41bd cae8 9abc c87a 6fbe 2f2b 56be
000002c0: ad40 04be 7dba 303e d293 c2bd 056b 98bd
000002d0: 306a 8c3e 338e 59be 3ab3 3abe 2f10 7dbe
000002e0: 1e1b b7be 297f 223e fe33 2abe efee f7bd
000002f0: 3de3 99bd 7481 4e3e da4b 573e 2db4 b7be
00000300: d4b4 92be 4ae8 033c edf2 3bbd 49e2 89be
00000310: 2ab0 923e 47fb 863d 42dc aa3d 2a0f b23e
00000320: b5b8 9b3e 858f 56be 6080 c6be 9545 57bd
00000330: 54cc 9ebe fda6 52be 3b0f b4be de48 fcbd
00000340: 3089 1d3e 64fd 42be 1259 b8be e76d bbbe
00000350: 879d bebe 6121 44be c743 babe 6b2a bcbe
00000360: 8f3f 90be c112 30be 728c 23be 6739 acbe
00000370: 370d c93d 9f0b 4dbe 9f2f 92be 97ca 8f3e
0.35796133 0.16591762 0.18098757 -0.26036277 -0.007364366 -0.28918895 -0.0136748515 0.21905617
0.32761735 0.31012285 0.13133577 0.05849533 -0.19381188 0.0981084 0.1622824 0.27996874
-0.15962547 -0.046704803 -0.037883434 0.10970149 -0.002929523 -0.19215979 -0.03155468 0.042475026
-0.22049277 0.2345232 0.0042918026 0.030308094 -0.16214243 0.26200095 0.1792955 -0.07679128
-0.09005503 0.030596277 0.081894584 0.19410601 -0.16256467 0.03289832 -0.090195306 -0.065841705
-0.25255403 -0.20422034 -0.3334289 0.109643206 0.13459164 -0.28772655 0.17487164 0.16646673
-0.33417267 -0.08741462 -0.15366931 -0.19297665 0.10307657 -0.18565924 0.09266046 -0.3643984
-0.05344528 0.14210314 0.0076813013 0.06672524 0.37497702 -0.15761332 0.23525402 0.029325718
-0.04028711 0.03879735 -0.020380981 -0.28050274 0.012336978 -0.33907062 -0.32348594 -0.2657248
-0.06286146 0.18062738 -0.36771074 0.18798806 0.2675988 0.12723194 0.20331319 0.36451125
0.2736384 0.18384601 -0.38997433 -0.39340973 0.06917156 -0.06238504 -0.017729048 0.09426477
-0.1612174 0.08135592 0.30883655 -0.26975954 0.17235287 0.10556776 -0.15337536 0.20546886
-0.115478426 -0.24721959 0.22841056 -0.08702713 -0.07479797 -0.33815083 -0.26992485 -0.29758728
-0.10332812 -0.030681925 0.17303556 -0.26358598 0.104042664 0.10239692 -0.19521223 0.009561383
0.32714784 -0.22958668 -0.122206815 -0.25705102 0.3546865 -0.062497444 -0.10737959 0.19969943
0.09117698 0.3058555 -0.14976543 -0.33017445 0.27155855 -0.013437625 -0.03148462 0.20690788
0.25176615 -0.14183278 -0.17890035 -0.030363377 -0.094091415 0.24996041 -0.15200576 -0.26351413
-0.09924417 -0.24495697 0.31791887 -0.04390513 0.2256938 -0.20667228 0.19610605 -0.2026223
-0.35489255 -0.18816021 -0.24310406 0.32222173 0.26129964 -0.11291985 -0.2098042 0.33900276
0.1823389 -0.020309836 0.072305426 -0.22263576 0.027410034 0.036887523 0.1784833 -0.08820865
-0.3542888 0.32769668 -0.35453776 -0.022334887 0.36145887 -0.023746297 0.04028186 0.22652245
0.17056748 -0.1104914 0.18544 -0.03343013 -0.047328237 -0.01890983 -0.23386681 -0.2091491
-0.12915297 0.1725864 -0.09500851 -0.07442287 0.27424765 -0.21245651 -0.18232432 -0.24713205
-0.35762876 0.1586882 -0.16621396 -0.1210612 -0.075140454 0.2016657 0.21025029 -0.3587965
-0.28653586 0.0080509875 -0.04588597 -0.26930454 0.28650028 0.06590896 0.08342792 0.34777194
0.30414358 -0.20953186 -0.38769817 -0.052556593 -0.31015265 -0.20571513 -0.3516787 -0.12318586
0.15384364 -0.19041973 -0.36005455 -0.36607286 -0.3722956 -0.19153358 -0.36379835 -0.36751112
-0.2817349 -0.17194654 -0.15971544 -0.33637545 0.09816974 -0.20023964 -0.28551957 0.2808425

model.0.bias f4 [32]
00000000: c346 d9ba 9a90 203d 67a7 c23d f2d1 863d
00000010: d587 ba3d b56e 333e 6e99 bf3e 5534 9fbe
00000020: 4d19 c1be c878 3bbe c42a 30be dce4 4e3e
00000030: c1af b33e 5baf bf3e 0066 2d3e b005 603e
00000040: 9fa3 3e3d 8547 933e 0fed 743e 80e1 8dbe
00000050: 9c1a 993d 7b0b 34be 6243 4ebe d4b9 893e
00000060: 47ca 0cbe 923d 2a3e 41d2 52bd 2c41 adbe
00000070: 7d79 efbc d37f 6f3e 53d8 20be 27f7 abbd
-0.0016576875 0.039200403 0.09504586 0.06583013 0.09107939 0.175227 0.37421745 -0.31094614
-0.37714615 -0.18307793 -0.17203814 0.2020449 0.35095027 0.37438473 0.16933441 0.2187717
0.04654276 0.28765503 0.23918556 -0.27711105 0.074757785 -0.17582504 -0.20142892 0.26899588
-0.13749038 0.1662505 -0.051470045 -0.33838785 -0.029232735 0.23388605 -0.15707521 -0.0839675

model.2.weight f4 [3, 32]
00000000: 1635 abbc 5cb6 5abd dcad 1fbd 1131 ee3d
00000010: 71db 1dbe 1345 dfbc 1660 04be edf9 f7bb
00000020: b4ee b03d 7a38 98bd 89aa 18be 9235 dd3d
00000030: 387c a13c a457 49bd 7ee6 173e 03f1 89bd
00000040: f895 9a3d db5d d0bb 0eb8 2ebe db95 c5bd
00000050: 23e6 ba3d f7a9 4cbd ef70 963d 88ea 5bbe
00000060: 3a25 473d cd8a 0d3c b5ca 1ebe af00 fdbc
00000070: e1e8 313e 9841 40bd 6d79 39bc 11f5 373d
00000080: 3dbe 05be 79d4 8e3d 6b8e 3cbe fc69 013d
00000090: 5d8f b03c 1acc 913d 0134 48bd 5c5d 313c
000000a0: 2500 05be e8ed 093e 4445 c13d 22ca a4bc
000000b0: 0306 e93b 0196 21be 30b4 babd 501e 52be
000000c0: d24a 20bc 68a3 4b3d 3c21 9e3d f4f6 273e
000000d0: 870a dd3c 6769 41ba 8f78 c43d 36fb 0d3e
000000e0: 8d60 34be 37d0 9d3d 79bc 94bd 7953 00bd
000000f0: 62da b9bd d8bc 083e db2c b33d c2e9 edbc
00000100: 44c3 363d ff42 0d3e d3c8 21bd c959 de3c
00000110: 266f 273e e1bd 1e3e 320e ea3c c809 003e
00000120: d22e 9ebd 4368 ab3d e528 b8bd 4912 33be
00000130: f918 453e 96aa 143e 2a49 0fbd ecc9 f6bd
00000140: f611 81bd e286 7bbc 16fc 993d 8c36 1f3e
00000150: 82d6 aabc a6a0 aabd 86ce 073e afa1 29be
00000160: 4e47 eebd 8429 b6bc aeec 05be 5d9e 8c3c
00000170: e261 35be 69a3 283e 7414 1dbc b770 c83d
-0.020899337 -0.053396568 -0.038984165 0.116304524 -0.15415742 -0.027254617 -0.12927279 -0.0075676353
0.08639279 -0.07432647 -0.14908804 0.10801233 0.019712552 -0.049155846 0.1483402 -0.067354225
0.075481355 -0.0063588447 -0.17062399 -0.09647723 0.09125926 -0.04996678 0.07345759 -0.21476185
0.048619486 0.00863905 -0.15507014 -0.030884115 0.17373993 -0.046937555 -0.011320454 0.044911448
-0.13060851 0.0697412 -0.18413703 0.031595215 0.021552736 0.071190074 -0.04887772 0.010825481
-0.12988336 0.1346966 0.094370395 -0.020115916 0.0071113124 -0.15779878 -0.09116399 -0.20519376
-0.009783464 0.049716383 0.07721183 0.16402799 0.026982559 -0.0007378072 0.09593307 0.1386536
-0.17614956 0.077057295 -0.07262511 -0.031329606 -0.09074856 0.13353288 0.0874879 -0.029042128
0.044619814 0.13795088 -0.03949816 0.027142422 0.16350994 0.1550212 0.028571222 0.12503731
-0.07723774 0.08369496 -0.08992175 -0.17487444 0.19247808 0.14518198 -0.034981884 -0.12050232
-0.06302254 -0.015351983 0.07518785 0.15548152 -0.020854238 -0.083314225 0.13262376 -0.16565584
-0.11634694 -0.022236593 -0.13078567 0.017165357 -0.1771312 0.16468586 -0.009587396 0.09787124

model.2.bias f4 [3]
00000000: 641e 99bd 5a7b f6bd ca69 be3d
-0.074765 -0.12035246 0.092975214
