trained_models/1.pth (torch, 2911 bytes, 4 tensors)

model.0.weight f4 [32, 7]
0.07275978 -0.14396082 -0.05703304 -0.025269203 -0.11032018 0.20785102 -0.042450875 -0.25037614
-0.16782154 0.10834081 0.33574384 0.33489472 0.019124363 0.024498215 -0.21068627 -0.34100145
0.31578827 -0.38853836 0.20169213 0.20541504 0.30954713 -0.14194275 -0.13161463 0.34429905
0.11059404 0.22903562 0.07855715 -0.3252661 0.0056329593 0.34062842 -0.07899176 -0.29040065
0.23144625 0.24758756 0.27934226 0.28804883 0.20875463 -0.0604583 -0.117142454 -0.2840745
0.20258816 0.1965281 0.2975247 0.26838556 0.071542166 0.2715729 -0.0035461825 0.22437192
0.1603014 0.3353329 0.003323936 0.34109896 -0.15889925 -0.03903372 -0.27150345 -0.02752939
0.3086902 -0.24610783 0.14206164 -0.14028905 0.32970703 -0.06607243 -0.021410314 -0.15455815
-0.21154091 -0.34558052 -0.15222836 -0.28395614 0.37169287 0.12103538 0.18762147 -0.31497577
0.071432315 -0.22233748 0.0092643695 0.057334963 0.16575699 0.13051616 0.09040171 -0.08012527
-0.0628789 0.06586252 -0.12584187 -0.18905535 0.29958865 0.14968912 0.36349544 -0.053423576
-0.33834803 -0.0872389 -0.013245234 0.10694547 -0.34851733 0.24700189 -0.0691423 -0.275812
0.37265068 -0.00021447073 -0.10108884 -0.27133322 -0.24251002 -0.07528657 0.063468695 0.36742908
-0.11872762 0.08066663 -0.06784038 -0.1575319 0.084102035 0.026801316 0.010440399 -0.17562544
0.16949151 0.17589548 0.18819627 0.20298232 0.16497897 -0.020196728 0.31639805 -0.030978404
-0.27281135 -0.045985993 -0.25191197 -0.116214074 0.23491605 -0.2659443 -0.27849555 0.18661328
0.041923307 0.045528576 -0.28318027 -0.13434833 0.11992532 -0.24211939 -0.32202896 0.04222577
-0.3032331 0.2188818 0.35046193 -0.033251252 -0.37272438 -0.2843838 0.2968388 -0.1788138
0.116154104 0.31522983 -0.37782127 0.21479626 -0.11414493 -0.2048059 0.017693609 0.2879926
-0.05663852 -0.24512716 0.20608348 0.20724815 -0.22004057 -0.3352755 0.19525294 -0.09685057
-0.21404639 0.19697855 0.33718103 -0.031834796 0.0828384 -0.12115007 -0.36869752 0.2593977
-0.09050336 0.32490608 -0.06430382 -0.26617187 -0.06966789 -0.08315057 -0.13116656 -0.12094392
-0.01053254 0.059788942 -0.19791481 -0.18251126 0.19435355 0.07970589 -0.19866447 0.21838449
0.0360154 -0.2510457 -0.19954975 0.1992034 0.2524111 0.030104868 -0.16762967 -0.0109902285
-0.111604795 0.38758868 0.23232046 0.13698235 -0.33664364 0.34584045 -0.28353986 0.31605616
-0.043095823 0.13571766 -0.051016178 -0.118255675 0.2558549 0.030710518 0.082005695 0.13864137
-0.02757215 -0.14554363 -0.045467652 0.33856994 0.23754145 0.38342205 0.2248741 0.08024789
-0.022952195 0.05138489 0.038811993 0.07543116 0.110501 -0.08454454 -0.17864668 -0.07875118
00000000: 1403 953d 776a 13be 7a9b 69bd 5c01 cfbc
00000010: 8cef e1bd e6d6 543e f8e0 2dbd 4d31 80be
00000020: 69d9 2bbe c9e1 dd3d 9ee6 ab3e 5277 ab3e
00000030: b2aa 9c3c 7bb0 c83c 24be 57be be97 aebe
00000040: 00af a13e 80ee c6be 6288 4e3e 5258 523e
00000050: f67c 9e3e 7159 11be fcc5 06be f747 b03e
00000060: 217f e23d 5088 6a3e 92e2 a03d 4789 a6be
00000070: b094 b83b d966 ae3e 6fc6 a1bd 65af 94be
00000080: 3f00 6d3e 9887 7d3e f305 8f3e 237b 933e
00000090: c6c3 553e 1fa3 77bd 62e8 efbd 3672 91be
000000a0: 4573 4f3e aa3e 493e 2855 983e d569 893e
000000b0: b384 923d 9a0b 8b3e 1267 68bb c1c1 653e
000000c0: 0d26 243e c1b0 ab3e 64d6 593b 86a4 ae3e
000000d0: 7cb6 22be d2e1 1fbd 8002 8bbe 5185 e1bc
000000e0: a40c 9e3e b103 7cbe 9b78 113e efa7 0fbe
000000f0: 5ccf a83e fb50 87bd af64 afbc 7e44 1ebe
00000100: 2e9e 58be eeef b0be c0e1 1bbe b362 91be
00000110: 874e be3e 66e1 f73d d81f 403e 8144 a1be
00000120: 1b4b 923d 70ac 63be 95c9 173c 11d8 6a3d
00000130: 33bc 293e 07a6 053e 8824 b93d b818 a4bd
00000140: a7c6 80bd eee2 863d b1dc 00be ba97 41be
00000150: af63 993e 1b48 193e 131c ba3e aed2 5abd
00000160: f43b adbe 4faa b2bd 8a02 59bc 3a06 db3d
00000170: dd70 b2be 10ee 7c3e 7a9a 8dbd 3b37 8dbe
00000180: 12cc be3e 8ce3 60b9 aa07 cfbd 30ec 8abe
00000190: 8c54 78be d82f 9abd e0fb 813d aa1f bc3e
000001a0: 7727 f3bd 8c34 a53d e6ef 8abd 0b50 21be
000001b0: b03d ac3d 6f8e db3c 350e 2b3c 28d7 33be
000001c0: 2f8f 2d3e f21d 343e 86b6 403e 99da 4f3e
000001d0: 3ff0 283e 9c73 a5bc edfe a13e 6cc6 fdbc
000001e0: eead 8bbe cf5b 3cbd 9bfa 80be a501 eebd
000001f0: d58d 703e da29 88be f896 8ebe 8d17 3f3e
00000200: c6b7 2b3d 2c7c 3a3d 01fd 90be 9c92 09be
00000210: 689b f53d 25ee 77be fbe0 a4be eef4 2c3d
00000220: 5e41 9bbe 8d22 603e bf6f b33e 7732 08bd
00000230: bbd5 bebe c19a 91be 41fb 973e f71a 37be
00000240: 34e2 ed3d ce65 a13e ca71 c1be 8df3 5b3e
00000250: d1c4 e9bd a3b8 51be 30f2 903c c473 933e
00000260: cbfd 67bd 9d02 7bbe 8c07 533e dc38 543e
00000270: 5152 61be 3ba9 abbe 63f0 473e 9759 c6bd
00000280: fa2e 5bbe bfb4 493e fea2 ac3e 3465 02bd
00000290: 2ea7 a93d 871d f8bd ecc5 bcbe c6cf 843e
000002a0: d359 b9bd 175a a63e b9b1 83bd ae47 88be
000002b0: 0aae 8ebd d94a aabd 8750 06be 72b1 f7bd
000002c0: ad90 2cbc 40e5 743d 2eaa 4abe 3be4 3abe
000002d0: 9e04 473e d73c a33d b36e 4bbe 2fa0 5f3e
000002e0: e284 133d 1089 80be c556 4cbe fafb 4b3e
000002f0: 073c 813e 7c9e f63c 1da7 2bbe 5c10 34bc
00000300: 0e91 e4bd 0672 c63e 6ae5 6d3e 1a45 0c3e
00000310: 8e5c acbe 0012 b13e 232c 91be 1dd2 a13e
00000320: 3f85 30bd 92f9 0a3e 57f6 50bd 0830 f2bd
00000330: 6aff 823e a094 fb3c 9af2 a73d 01f8 0d3e
00000340: fdde e1bc 6409 15be 4a3c 3abd 0a59 ad3e
00000350: 113e 733e e54f c43e 6545 663e 0159 a43d
00000360: 3e06 bcbc f678 523d 53f9 1e3d a77b 9a3d
00000370: 594e e23d b025 adbd 28ef 36be 4c48 a1bd

model.0.bias f4 [32]
0.24315898 0.23140061 -0.2047729 -0.33916044 -0.17690058 0.15858994 0.3184987 0.37076497
0.33986986 0.029483462 -0.31563342 0.21867107 -0.24320039 -0.2649433 -0.21959028 0.028675413
0.03012453 -0.06688058 -0.2744466 -0.12021197 -0.15190277 -0.20787422 -0.3557744 0.15312777
0.30693856 -0.2313435 -0.36166042 0.17493282 0.32224134 -0.3081689 -0.08050446 0.3610504
00000000: abfe 783e 48f4 6c3e fdaf 51be 70a6 adbe
00000010: 6d25 35be 6765 223e 4312 a33e e8d4 bd3e
00000020: 6c03 ae3e 4d87 f13c b49a a1be 4feb 5f3e
00000030: 8609 79be a6a6 87be 46dc 60be b3e8 ea3c
00000040: b8c7 f63c aff8 88bd 4484 8cbe b131 f6bd
00000050: 668c 1bbe fbdc 54be 1028 b6be 87cd 1c3e
00000060: 0d27 9d3e 4fe5 6cbe 8e2b b9be 9721 333e
00000070: d1fc a43e 50c8 9dbe 86df a4bd 99db b83e

model.2.weight f4 [3, 32]
-0.16798909 -0.06230291 0.054436747 -0.02080331 -0.10436486 -0.14435354 0.18957092 0.043378443
0.14972846 0.069915004 -0.17067994 0.135697 -0.026562609 0.039624676 0.097634666 -0.0661802
0.041265246 0.012240582 0.10372912 -0.054030467 0.08935028 0.009231656 -0.02358702 -0.18601163
-0.00020411718 -0.027456753 -0.12436525 0.23191074 -0.1797602 0.13910577 -0.06509584 -0.015228288
-0.13125786 0.12436729 -0.01914519 0.09153275 0.0950337 -0.13930221 0.10446337 -0.16896355
0.0445543 -0.17308368 -0.15913348 -0.05583368 -0.029749416 0.12677076 0.007011044 -0.10054305
-0.13414997 0.15413511 0.08892184 0.046649713 -0.043829054 0.1330327 0.012314361 0.15865096
-0.08201414 0.13690105 -0.05396963 -0.19547804 0.032281768 -0.15930739 0.047309864 -0.09742375
-0.06285815 0.024204934 0.13872993 -0.010415057 0.18410015 -0.001024115 0.11256542 -0.027526421
0.120241284 0.015831346 0.008675718 -0.0057868673 -0.07728202 -0.1392077 -0.053010512 -0.09200345
-0.09866618 -0.08807416 0.11477584 -0.07217778 0.1692196 -0.04680753 -0.07718015 -0.07562128
-0.09063092 0.124772266 0.14765356 0.093629986 -0.06750064 0.08364866 -0.18014951 -0.09388655
00000000: 5505 2cbe 5631 7fbd 11f9 5e3d b46b aabc
00000010: 3ebd d5bd 6ad1 13be e11e 423e 98ad 313d
00000020: 6b52 193e 992f 8f3d b9c6 2ebe 28f4 0a3e
00000030: d499 d9bc 7c4d 223d aff4 c73d 7c89 87bd
00000040: bf05 293d b98c 483c ef6f d43d 0d4f 5dbd
00000050: 48fd b63d 5f40 173c 9139 c1bc d579 3ebe
00000060: 4a08 56b9 fcec e0bc 35b3 febd 027a 6d3e
00000070: 0f13 38be be71 0e3e f850 85bd 1280 79bc
00000080: 7668 06be 47b4 fe3d 60d6 9cbc 8675 bb3d
00000090: 07a1 c23d 3da5 0ebe e4f0 d53d c804 2dbe
000000a0: 927e 363d d93c 31be e3f3 22be dbb1 64bd
000000b0: 0cb5 f3bc 32d0 013e e6bc e53b 84e9 cdbd
000000c0: 9c5e 09be 98d5 1d3e a71c b63d c513 3f3d
000000d0: 1886 33bd b939 083e 2cc2 493c 6675 223e
000000e0: 08f7 a7bd ca2f 0c3e 420f 5dbd 652b 48be
000000f0: e339 043d 7a21 23be fdc7 413d 1a86 c7bd
00000100: c6bb 80bd 6d49 c63c 380f 0e3e eaa3 2abc
00000110: c084 3c3e 993b 86ba b388 e63d 177f e1bc
00000120: 1041 f63d bdb0 813c 9924 0e3c c39f bdbb
00000130: 0946 9ebd 778c 0ebe 8d21 59bd 4e6c bcbd
00000140: 7f11 cabd 3a60 b4bd 980f eb3d f2d1 93bd
00000150: e747 2d3e 41b9 3fbd a010 9ebd 54df 9abd
00000160: b49c b9bd 9a88 ff3d 7f32 173e 14c1 bf3d
00000170: c73d 8abd fd4f ab3d 1d79 38be 9747 c0bd

model.2.bias f4 [3]
-0.05280283 -0.027907072 0.11050598
00000000: c847 58bd 5f9d e4bc f650 e23d
