trained_models/1.pth (torch, 2911 bytes, 4 tensors)

model.0.weight f4 [32, 7]
00000000: ddca 59bc 27fa aebe 9cc9 74bd f334 b8bd
00000010: 47b7 d43d f010 86be 4b4d bebe ee83 983e
00000020: 1ccf 1abe 245f 56bb 9b15 743d 107b d73e
00000030: aa97 82be e69f 0cbe b764 a2be 8bd4 933d
00000040: ffcc 823e 2866 563e b595 2fbd 8eee 43be
00000050: 07cc 92be eb0f 93be 3d34 3c3e 92c8 babe
00000060: ba28 c8bc c63a efbd c127 553c 4308 863e
00000070: 1cfe 343e 2e1c b4be d792 0f3e 77e8 663e
00000080: a57b 8bbd d0c4 0d3d ec98 be3d 76ee eb3d
00000090: fc6a 1fbe 5f2a f73d fbaf 59be 45a6 f6bd
000000a0: 554d 713e d80e ae3d dc2a 97be fe34 37be
000000b0: b48e 5c3e db67 973e 8833 06bf 9155 913e
000000c0: 004b 383e 996e 93be 806a 7dbe 6b40 8cbd
000000d0: 0d12 ef3d e0ec cb3d 9c18 08bd f1f7 5d3e
000000e0: 0129 0bbe 7db5 59be 367e e2bd 24a9 993d
000000f0: 8759 a6be 7a0c a03e cd26 8c3e f065 bd3e
00000100: 9d16 13be 45f0 5f3e dfb5 c0be ce91 bf3d
00000110: b2d6 133e a857 f53d 0c77 b63e 0274 90be
00000120: e9d8 003d 182d 213e b26d fd3d fc3c f3bc
00000130: 22fc c0be 34ae 38bd 2ac5 83be 901b be3e
00000140: 7fb1 89be 75d2 88be a3e0 8a3d 8370 833e
00000150: 02a4 23bd f164 b1be 0bd1 6bbd b351 ac3e
00000160: 4ebb f8bd df74 5c3d 883f 0f3e 4571 8cbe
00000170: 01cc 63be 99d7 823e fdcb 24be 94d3 913c
00000180: beb9 a03d bb00 a33e db2e bc3d 40d9 67be
00000190: 8b71 acbe 22a2 0d3d b232 76be a009 c83d
000001a0: eaba ae3e 511a 0b3e 47c9 4f3e b21b aabe
000001b0: a47c 8abe ef98 903d 47cb 6f3c d89b 343e
000001c0: 7239 8a3e 8c26 0d3e ba08 96be 0cd4 8cbe
000001d0: 3b6f 6abd 70b3 aebe ce16 ab3d 85c1 853e
000001e0: f608 1fbe 4b65 923e 4650 9dbe 16bf 83be
000001f0: 9688 aebe cb3e 7b3e 488e 813e e954 0e3c
00000200: a8c2 b4be 5e53 99be 1737 47be 8ee5 86be
00000210: dbda d73d 2838 323e db1e 823e b79e 9e3e
00000220: a36b 2ebe 0b4b 4dbe 9b88 ab3e fb0b b9be
00000230: bdec fabd 4dac 13be c0ae e1bd f7f3 6dbc
00000240: b045 86be 17c4 8d3e 0b2f bbbd 8824 c3bd
00000250: 1946 81bd 0689 c8bd 680e 85be 5461 8dbe
00000260: 89bf 98be 5516 81bd e1dd 273e aae9 fa3b
00000270: 447c fcbd 73ba 14bb bef0 bcbe ae71 543e
00000280: a277 383e 7a28 a6be def6 0ebd 0f17 603e
00000290: 6bda 96be 9ee3 ddbc cad7 09be dac5 d53c
000002a0: 8415 73bd 546a 643e faeb c5bd d3ba aa3e
000002b0: eec3 cfbe 3b09 ddbd 2d62 4b3d 5c6f 59be
000002c0: c4b6 0bbe 24b6 66bb 7b33 ac3e 4027 87be
000002d0: 8095 b53e 640d 4bbe 3464 883e f418 22be
000002e0: f95d 4bbe 883f 34be 8acd 86be 17ac 9fbe
000002f0: 2c0f afbe 3304 c2be aea9 17bd 8edb 3f3e
00000300: 776d f4bc 2cc7 4bbd 947e 09be 42ef a63e
00000310: d784 fb3d 1b44 ac3d c219 bdbe 1b18 983e
00000320: ee44 3a3e 56eb 7dbe 35dc 19be 3a2d d3bd
00000330: 1a8a f13d 5e27 643e 0404 d23e 86d0 f1be
00000340: 132e 99be 6845 563e d028 793d 5be0 163e
00000350: 8345 6d3e cc99 82be dbe0 8f3e be92 23be
00000360: 4dd4 5ebe 9170 a53e ec18 55be 2073 b73e
00000370: c430 103b 372a c1be 2b5c 98be 89e1 99bd
-0.013292995 -0.34175226 -0.059762582 -0.08994474 0.1038652 -0.26184797 -0.37168345 0.29788154
-0.15118068 -0.0032710517 0.059590917 0.42086077 -0.25506335 -0.13732871 -0.31717464 0.07218274
0.25547025 0.20937407 -0.04286738 -0.1913397 -0.28671286 -0.28723082 0.18379302 -0.36481148
-0.024433482 -0.11681132 0.013009966 0.26178178 0.1767506 -0.3517775 0.14020859 0.22549616
-0.06810693 0.034611523 0.09306511 0.11520092 -0.15568155 0.120686285 -0.21258537 -0.12043432
0.23564656 0.08498925 -0.29524887 -0.17891309 0.21538812 0.29571423 -0.5242238 0.28385594
0.1799736 -0.28795317 -0.24747658 -0.06848224 0.11673365 0.0995729 -0.033226594 0.21676613
-0.1358986 -0.21260639 -0.11059229 0.07502964 -0.3249018 0.3125952 0.27373353 0.36991835
-0.14364095 0.21869 -0.37638757 0.09353982 0.14437369 0.1197961 0.356377 -0.28213507
0.03145686 0.15739858 0.12374438 -0.029692166 -0.37692362 -0.045088008 -0.25736362 0.37130404
-0.2689323 -0.26723066 0.06781127 0.25671777 -0.039951332 -0.34647325 -0.057572406 0.33656082
-0.121451005 0.053822394 0.13989079 -0.27430168 -0.2224579 0.25555113 -0.1609344 0.017801084
0.078479275 0.31836495 0.091886245 -0.22641468 -0.33680376 0.03457845 -0.24042776 0.09767461
0.3412698 0.13584258 0.20291625 -0.33224255 -0.27048218 0.0706042 0.014635867 0.17637575
0.26996952 0.13784236 -0.29303533 -0.2750553 -0.057234984 -0.34121275 0.08353959 0.26124206
-0.15530762 0.28592905 -0.30725306 -0.25731725 -0.34088582 0.24535672 0.25303864 0.008687236
-0.3530476 -0.29946417 -0.19454609 -0.2634701 0.1053979 0.17404234 0.25414166 0.30980465
-0.17033248 -0.20048158 0.3350266 -0.36141953 -0.122521855 -0.14421196 -0.11019659 -0.014523498
-0.26225042 0.27688667 -0.09139832 -0.09528452 -0.06312198 -0.0979176 -0.25987554 -0.27613318
-0.2983363 -0.063030876 0.16393234 0.0076572495 -0.12328389 -0.002269414 -0.36902422 0.2074649
0.18014386 -0.32452756 -0.0349034 0.21883796 -0.29463515 -0.027086075 -0.13461223 0.02609532
-0.05934669 0.22306186 -0.096641496 0.3334566 -0.4057917 -0.10792776 0.049654175 -0.21233886
-0.13643938 -0.003520378 0.33633026 -0.26397133 0.35465622 -0.19829327 0.2663895 -0.15829831
-0.19860066 -0.1760236 -0.2632869 -0.31185982 -0.34191263 -0.3789383 -0.037027054 0.18736097
-0.029837353 -0.049750492 -0.13427192 0.32604414 0.122811966 0.084114276 -0.36933714 0.2970589
0.18190357 -0.24796805 -0.15025409 -0.10311361 0.11793919 0.22280642 0.4101869 -0.47229403
-0.29917964 0.20924914 0.060829937 0.14734022 0.23171048 -0.25507963 0.2810124 -0.15973946
-0.21760674 0.32312444 -0.20810288 0.3583002 0.0022001723 -0.3772752 -0.2975782 -0.075137205

model.0.bias f4 [32]
00000000: 35b2 a1be e0bb 973e 87b8 a5be cf18 dbbd
00000010: e6c9 08be 9d5f 64be 59e3 a1be 4505 a93d
00000020: 86a6 8bbe 11ca b9be 307b c13e b2d6 b33e
00000030: 057c 4abd 358b 80be 63ee 873e a251 bbbc
00000040: ec6c 94be fbee c9bd fd74 a1be 9621 69be
00000050: 6e6d 24be b3f4 abbe 67c5 283e 298e b2be
00000060: 0b25 9bbe 6829 b23e 3bc9 d2ba 24f8 dfbd
00000070: f94a 1e3e cba1 96be 0cdd 8e3e 6c03 26be
-0.31581274 0.29635525 -0.32367346 -0.10698091 -0.13358268 -0.22302099 -0.31618765 0.08252958
-0.27275485 -0.36286977 0.37789297 0.35124737 -0.04943468 -0.25106207 0.26549062 -0.022866074
-0.2898935 -0.09860035 -0.31534567 -0.22766718 -0.16057369 -0.33585128 0.16481553 -0.34874085
-0.303017 0.34797215 -0.00160817 -0.10936001 0.15458287 -0.29420313 0.2790302 -0.16212243

model.2.weight f4 [3, 32]
00000000: 0a9f f33c 8b92 883d cdd8 e83d 5454 11bd
00000010: 9e31 473d 14b4 1cbe 6815 3abe 6a7b 083d
00000020: 39ba dfbd 1f61 df3d d70d 233e 355f e53c
00000030: 6c6e b23c 8b0b e83c 50c9 2c3e 5ab4 a3bd
00000040: b597 8d3a f0a0 733b 5e9d d6bd 0b69 483c
00000050: 51ab 31bc ef6b f2bb b765 d2bd fb94 3d3d
00000060: 82e8 a7bd ee59 97bc 59b8 27be 9adf b6bd
00000070: 5284 0f3d 2445 ffbd 055b 1abe fb7f dabd
00000080: 5f22 1a3e 96cd a4bd b476 ab3d b854 9a3d
00000090: ab74 e13d 3da9 923d 1a00 993d c914 ed3d
000000a0: 2432 c83c 67f1 fabd 4ef4 353b 0099 0a3e
000000b0: 2e91 483e ce57 2abd 4cc0 44bd def8 4cbe
000000c0: 04f6 e8bd c001 eb3d 44a2 f33d baa0 b9bd
000000d0: e52b 223e 4e89 25bd 5343 8fba ef50 d0bc
000000e0: 5466 1b3e 41d1 473e 30fa ae3d cbf7 f03c
000000f0: fabe 013e 4d24 223e bd8b abbd 25c4 8b3d
00000100: 4a77 03be d494 5dbe 9dc8 1a3e 274e 143d
00000110: 647b c9bc 1331 bebb a179 863c a83a bc3d
00000120: 5d97 113e 6c8d 89bd c4e8 68bd 4c08 a0bd
00000130: 75c2 4fbd 6224 643d 921d b03d eb75 1c3e
00000140: 958f ab3d 000a 34be 24a7 0fbe 6d70 8d3b
00000150: a006 b8bd e814 933c 2db6 5a3d 1031 fb3d
00000160: d976 78bc fa61 0d3e a8f4 1fbe b14a ca3d
00000170: ed5d 52be 2ef1 d8bc bb85 c23c c17e 8e3d
0.029738922 0.06668576 0.113694765 -0.035480812 0.048631303 -0.1530307 -0.18172228 0.03332082
-0.10924191 0.10907196 0.15923248 0.0279995 0.021781169 0.028325817 0.1687367 -0.07993384
0.0010802659 0.0037174784 -0.10479234 0.012232075 -0.010844068 -0.0073981206 -0.10273307 0.046284657
-0.08198644 -0.018475499 -0.16378917 -0.08929367 0.0350383 -0.124643594 -0.15073784 -0.106689416
0.15052174 -0.08047025 0.0837225 0.0753569 0.11008581 0.07161186 0.074707225 0.1157623
0.024437971 -0.12253075 0.0027764025 0.13534927 0.19586632 -0.041587643 -0.04803495 -0.2001681
-0.11375049 0.11474943 0.11896184 -0.09063859 0.15837057 -0.040414147 -0.0010930098 -0.025429217
0.15175754 0.19513418 0.08543813 0.029415032 0.12670508 0.1583416 -0.08376262 0.06824521
-0.12838474 -0.21638805 0.1511559 0.036207344 -0.02459497 -0.00580419 0.016415419 0.09190875
0.14217897 -0.06716427 -0.056862608 -0.078140825 -0.050722558 0.05569876 0.0859939 0.15279357
0.083769955 -0.1758194 -0.14028603 0.0043163807 -0.089856386 0.017954305 0.053396393 0.12265217
-0.015165054 0.13806906 -0.15620673 0.098775275 -0.20543642 -0.026482191 0.023745408 0.0695777

model.2.bias f4 [3]
00000000: 3902 aabd 7913 d2bd e357 183d
-0.08301205 -0.1025762 0.03719319
