trained_models/example_model.pth (torch, 2911 bytes, 4 tensors)

model.0.weight f4 [32, 7]
-0.055132627 0.19767118 0.18338928 -0.271379 -0.21004534 -0.199659 -0.06611349 -0.37465897
0.23521176 -0.22734496 -0.21315263 -0.03117233 0.26383224 -0.2754749 0.340955 0.086156994
-0.34805056 0.28742793 0.05938369 -0.079351306 0.37901932 0.20680358 0.09282382 0.1792705
0.25076872 -0.2784448 0.21214187 0.20811893 0.06550206 -0.23172688 -0.2791774 -0.33855233
-0.3682169 -0.3700924 -0.039172854 -0.28494832 0.060710117 -0.0277741 -0.011735798 -0.35826454
0.34471142 0.20247577 0.20983931 0.0075697834 0.0634875 -0.16160089 0.22269253 0.005707636
0.046092056 0.3748737 -0.2278036 0.3338534 0.089060955 -0.19596812 -0.06855809 -0.36985427
0.26481616 -0.22378002 -0.117014416 -0.11781882 -0.34320697 -0.2259218 -0.24316128 -0.07701438
0.3483934 0.36172605 0.35300767 -0.24065979 0.109104015 0.18261936 -0.15655999 -0.29470846
-0.12295022 0.2870976 -0.10962214 0.3730776 0.04218904 0.19105434 -0.13848005 0.13264358
-0.29951617 0.3333771 0.3709718 0.13097817 0.110478394 0.27317962 -0.37958235 0.2232515
-0.17510867 -0.13071299 0.21714596 -0.37106085 -0.28768095 0.2484281 -0.24636883 -0.32225633
-0.031986643 -0.028240703 0.23652044 -0.068778895 0.15885487 0.01874226 0.22796 -0.049464226
-0.017177796 -0.34485132 0.27131024 0.3762806 -0.1510664 0.07000432 0.10944336 -0.035349976
-0.25957784 -0.3472457 -0.21438701 0.22660378 0.3295136 -0.012542884 0.33555582 -0.35983452
0.08792306 -0.00792221 0.27567074 0.2183772 -0.021861002 -0.18011971 0.26624358 0.14754006
-0.16677408 -0.2093326 0.32438105 -0.23648876 0.2087347 -0.037393015 -0.26439717 -0.1665176
-0.36260134 -0.34754932 0.22328985 -0.04851968 -0.36382085 -0.33658063 0.1572092 0.1924722
-0.054259066 0.25730833 -0.24356945 -0.036862034 0.11577306 0.35216996 0.27342528 0.10280201
-0.1738303 -0.24850327 0.31934863 -0.33751035 0.35654232 0.06990568 0.22202522 -0.025934808
0.26056838 0.23946935 -0.20287412 -0.29290977 0.018796096 0.20221847 0.15882629 -0.12003845
0.3588691 -0.30368137 0.01900783 -0.15076013 0.22158097 -0.0914802 0.22833753 -0.29799426
0.10888295 -0.16318463 0.25148946 -0.07176445 0.3544267 0.36846143 0.2641454 0.33793133
0.0666351 -0.022309702 0.24878435 -0.2183926 0.25432852 0.32823122 -0.039931927 -0.37586713
-0.35043666 -0.04776894 0.35668606 0.043942034 -0.3667237 0.027476417 0.15114167 0.04843039
0.0510143 0.31074157 -0.07779714 -0.37728024 0.048452683 -0.15249327 0.29966903 0.37124857
-0.33839062 -0.024862427 -0.03486564 -0.027624914 -0.0065264385 0.3717968 0.32098114 0.18897222
0.35342923 -0.28159025 -0.16894841 -0.343249 0.0033869704 0.0051084133 0.16232839 0.10336633
00000000: c0d2 61bd 506a 4a3e 66ca 3b3e 30f2 8abe
00000010: 2016 57be 6973 4cbe 8266 87bd 4dd3 bfbe
00000020: 5adb 703e 1ecd 68be af44 5abe 1d5d ffbc
00000030: 0515 873e 0c0b 8dbe a791 ae3e 1473 b03d
00000040: af33 b2be c129 933e 503c 733d f082 a2bd
00000050: d20e c23e 51c4 533e 6a1a be3d b092 373e
00000060: c264 803e 5190 8ebe b83b 593e 211d 553e
00000070: f225 863d d049 6dbe 57f0 8ebe bb56 adbe
00000080: ed86 bcbe c07c bdbe b773 20bd bfe4 91be
00000090: 2cab 783d 8286 e3bc 8147 40bc 736e b7be
000000a0: 047e b03e cf55 4f3e 1ee0 563e f20b f83b
000000b0: bc05 823d b47a 25be 8309 643e 1f07 bb3b
000000c0: 06cb 3c3d 72ef bf3e 5945 69be d5ee aa3e
000000d0: 9765 b63d deab 48be 2f68 8cbd 8a5d bdbe
000000e0: fc95 873e 9726 65be 41a5 efbd fe4a f1bd
000000f0: d3b8 afbe 0b58 67be 45ff 78be b7b9 9dbd
00000100: 9f60 b23e 2834 b93e 6cbd b43e 856f 76be
00000110: ed71 df3d 9200 3b3e 4351 20be 07e4 96be
00000120: 53cd fbbd 75fe 923e 9381 e0bd 0704 bf3e
00000130: 6ace 2c3d c0a3 433e b7cd 0dbe b8d3 073e
00000140: 2f5a 99be 67b0 aa3e 04f0 bd3e 241f 063e
00000150: 7f42 e23d 33de 8b3e 9e58 c2be 0b9c 643e
00000160: b04f 33be a0d9 05be 835b 5e3e b0fb bdbe
00000170: eb4a 93be f063 7e3e 1c48 7cbe c8fe a4be
00000180: 6d04 03bd 0c59 e7bc 6a32 723e f3db 8cbd
00000190: daaa 223e 5e89 993c 596e 693e 009b 4abd
000001a0: 73b8 8cbc 5a90 b0be 2de9 8a3e daa7 c03e
000001b0: 26b1 1abe 6d5e 8f3d d723 e03d 23cb 10bd
000001c0: 63e7 84be 30ca b1be 4588 5bbe d20a 683e
000001d0: 02b6 a83e ab80 4dbc f9cd ab3e 3b3c b8be
000001e0: 0111 b43d 28cc 01bc b724 8d3e 469e 5f3e
000001f0: d815 b3bc 4d71 38be 1451 883e be14 173e
00000200: d3c6 2abe 495b 56be 4615 a63e 1c2a 72be
00000210: 8dbe 553e 6b29 19bd 115f 87be 9783 2abe
00000220: e2a6 b9be fcf1 b1be 18a6 643e 92bc 46bd
00000230: ba46 babe 4c54 acbe 73fb 203e 6f17 453e
00000240: c13e 5ebd ebbd 833e 456a 79be a5fc 16bd
00000250: 6d1a ed3d 9f4f b43e 66fe 8b3e dc89 d23d
00000260: 9200 32be a477 7ebe aa81 a33e 28ce acbe
00000270: b78c b63e b62a 8f3d 945a 633e 3c75 d4bc
00000280: 3869 853e 7437 753e 3cbe 4fbe 45f8 95be
00000290: 45fa 993c 5c12 4f3e 5ca3 223e b8d6 f5bd
000002a0: b1bd b73e 207c 9bbe 4fb6 9b3c dd60 1abe
000002b0: 1fe6 623e f959 bbbd 50d1 693e b492 98be
000002c0: 06fe de3d df19 27be 3ac3 803e 3df9 92bd
000002d0: 6b77 b53e faa6 bc3e 113e 873e 5605 ad3e
000002e0: fc77 883d d6c2 b6bc 53c1 7e3e 4fa2 5fbe
000002f0: 5937 823e ec0d a83e a98f 23bd a871 c0be
00000300: 6f6c b3be 5da9 43bd 8e9f b63e 90fc 333d
00000310: 35c3 bbbe 3916 e13c e2c4 1a3e f25e 463d
00000320: 5ff4 503d 8519 9f3e 1b54 9fbd e02a c1be
00000330: 5276 463d 3227 1cbe 386e 993e 4b14 be3e
00000340: 8941 adbe 4aac cbbc 46cf 0ebd a54d e2bc
00000350: bcdb d5bb 265c be3e a457 a43e ef81 413e
00000360: adf4 b43e 992c 90be d000 2dbe 55be afbe
00000370: eff7 5d3b 7a64 a73b 6a39 263e bab1 d33d

model.0.bias f4 [32]
0.2786828 0.30798286 -0.06259456 -0.30115527 -0.37017035 0.24638474 -0.2590482 -0.23181812
0.10811298 -0.2326882 0.18003066 0.109778956 0.30372205 0.23934194 0.095818676 -0.15733306
-0.030507453 -0.37072882 0.05626041 -0.20262612 0.2637898 0.3360008 -0.12193194 -0.3288398
0.20488875 -0.16611043 -0.18534523 -0.04920765 -0.23830283 0.24050339 -0.19498166 0.069101706
00000000: 83af 8e3e eeaf 9d3e 9431 80bd 0631 9abe
00000010: f886 bdbe 484c 7c3e f7a1 84be bb61 6dbe
00000020: 576a dd3d d145 6ebe f559 383e cad3 e03d
00000030: 7581 9b3e 0e16 753e 953c c43d eb1b 21be
00000040: c4ea f9bc 2bd0 bdbe 5171 663d 397d 4fbe
00000050: 750f 873e 4c08 ac3e 74b7 f9bd b15d a8be
00000060: 5bce 513e da18 2abe 24cb 3dbe f68d 49bd
00000070: a805 74be 8546 763e 46a9 47be 3285 8d3d

model.2.weight f4 [3, 32]
-0.017250663 0.059109375 -0.14888772 -0.022601226 -0.06851411 0.07807279 0.1211092 0.08757833
-0.07597005 -0.12425179 -0.017156102 -0.041701574 0.098089665 0.09536573 -0.0022009094 -0.14314964
0.14349635 -0.058726672 -0.1505773 -0.125738 0.094275 0.06493429 0.07820328 -0.1273085
0.10316478 -0.15607844 -0.070336014 -0.10905235 0.16409376 0.03745898 0.15478595 0.13024415
0.1290378 -0.0850516 -0.025853254 0.011240375 0.033763904 -0.19599366 -0.015787195 0.087609075
-0.058629807 0.058818117 -0.073250294 -0.12132047 -0.108393386 0.116386816 0.041349597 -0.13946779
-0.12552364 0.15317035 -0.12317061 0.049225748 -0.15428242 0.18761688 -0.05568542 -0.04285934
0.12186091 -0.028034583 0.013050143 -0.04674157 0.01318887 -0.12101486 0.04644773 0.11153289
0.14487301 0.038406633 0.1483859 -0.07173238 -0.046253722 -0.07820998 0.060667463 -0.08778864
-0.07745021 0.012018338 0.11790743 0.17686613 0.10365954 0.10464232 0.14331008 -0.079387404
-0.18338485 0.11247241 0.099476255 -0.109163605 -0.12609258 0.027011303 -0.06075007 0.0009946849
0.11461858 0.009922431 -0.13671201 0.0052986173 -0.11675336 -0.12124593 -0.16590264 -0.15120639
00000000: 4351 8dbc ac1c 723d 0676 18be 3526 b9bc
00000010: 2051 8cbd a0e4 9f3d 1a08 f83d 445c b33d
00000020: 3096 9bbd b977 febd f48a 8cbc 45cf 2abd
00000030: 3ce3 c83d 1c4f c33d 223d 10bb d295 12be
00000040: b5f0 123e 618b 70bd f030 1abe 76c1 00be
00000050: 4013 c13d 45fc 843d 0b29 a03d 295d 02be
00000060: 0e48 d33d 07d3 1fbe 540c 90bd d756 dfbd
00000070: 3208 283e 966e 193d 3580 1e3e b95e 053e
00000080: 7c22 043e 892f aebd 34ca d3bc 8d29 383c
00000090: 054c 0a3d 90b2 48be 2654 81bc 636c b33d
000000a0: cf25 70bd 44eb 703d 4004 96bd de76 f8bd
000000b0: 5afd ddbd 365c ee3d 325e 293d a5d0 0ebe
000000c0: 4589 00be b0d8 1c3e df40 fcbd f0a0 493d
000000d0: 36fc 1dbe a41e 403e 6516 64bd 468d 2fbd
000000e0: 3692 f93d c8a8 e5bc 44d0 553c 1774 3fbd
000000f0: 2116 583c a4d6 f7bd fa3f 3e3d 5b6b e43d
00000100: 9759 143e 4650 1d3d 79f2 173e 6de8 92bd
00000110: 8b74 3dbd 8e2c a0bd 727e 783d 88ca b3bd
00000120: 379e 9ebd 90e8 443c 7379 f13d 651c 353e
00000130: 744b d43d b64e d63d e1bf 123e dd95 a2bd
00000140: 3dc9 3bbe ef57 e63d 35ba cb3d 2b91 dfbd
00000150: 6a1e 01be cf46 dd3c 11d5 78bd 1660 823a
00000160: 25bd ea3d b191 223c 3cfe 0bbe 06a0 ad3b
00000170: 631c efbd c94f f8bd 62e2 29be d9d5 1abe

model.2.bias f4 [3]
0.002976449 0.094655074 0.1656666
00000000: 8710 433b 85da c13d 81a4 293e
