trained_models/example_model.pth (torch, 2911 bytes, 4 tensors)

model.0.weight f4 [32, 7]
000000 3d b9 3b bd 3f 0e 81 be d2 2c 94 3e e7 13 e8 3d
       -0.045830954 -0.2520618 0.28940445 0.11331921
000010 fb 04 19 be f5 6f 25 bd 92 b9 cb 3d 48 3a a2 3e
       -0.14943306 -0.040389974 0.09947504 0.3168509
000020 a5 23 82 3d 9f 27 92 be 9e c2 8d 3e e5 0b 72 bd
       0.06354455 -0.28545853 0.27687544 -0.059093375
000030 52 4f b9 bb ac 55 58 3e b5 d1 94 be 14 97 24 be
       -0.0056552077 0.21126431 -0.29066244 -0.16073257
000040 a5 ae 51 3e 2b 10 3d be 93 76 37 3d be 30 97 be
       0.20476778 -0.18463199 0.044790816 -0.29529375
000050 80 80 fe bd e2 83 54 bd 41 65 94 3e e5 e2 db 3c
       -0.12426853 -0.051883586 0.289835 0.02684159
000060 3a a1 85 3e 5a b6 9e bc d5 4e 01 3e 36 a9 10 be
       0.2609957 -0.019374061 0.12627728 -0.14127049
000070 d6 b8 b8 3c 50 3a c6 3d 91 e9 12 be e0 01 34 be
       0.022549074 0.09679091 -0.14346911 -0.1757884
000080 b0 3b ac be 9d f3 f2 bd 8d c9 74 be 2e 24 04 be
       -0.33639288 -0.11862872 -0.2390501 -0.12904426
000090 bd c2 94 3e 8e 9a 76 3e 7d e9 b1 3c b1 c5 0a be
       0.29054824 0.24082395 0.021717781 -0.13551976
0000a0 f1 a8 a4 3e c5 89 91 be cf 0a 53 3c 08 fb bc 3e
       0.32160142 -0.28425422 0.012880995 0.36910272
0000b0 56 b7 bc 3e 5f 28 b4 be 15 0e 70 be a0 b5 dc bc
       0.36858624 -0.3518705 -0.23442872 -0.026942074
0000c0 d5 77 a9 be 48 36 b8 be 36 2f 87 3d c4 11 bf 3e
       -0.33099237 -0.35978913 0.06600802 0.37318242
0000d0 c6 b1 92 be de ca 18 3d d4 3b d9 3c f6 d9 49 3e
       -0.28651255 0.037302844 0.026517786 0.19712052
0000e0 c1 b3 62 3e 02 16 eb 3d 0c af a6 bc ec 1f 8a be
       0.22138883 0.11478807 -0.02034714 -0.2697748
0000f0 51 de 53 3e b4 4e 09 3e 3c 75 8c be 9c f2 87 3e
       0.20690276 0.13408929 -0.27433193 0.26552284
000100 4f c2 59 3d 4f 2f a1 3e a7 8e b1 be e3 3a 07 3e
       0.053163823 0.31481406 -0.34679148 0.13206057
000110 35 80 b1 be 01 dc b6 be e2 cb 0e 3e 10 9c c6 bd
       -0.34668127 -0.35714725 0.13944963 -0.09697735
000120 26 ec 7a be f7 52 58 be c2 b1 10 be a2 d8 be bd
       -0.24504146 -0.21125399 -0.14130309 -0.09318663
000130 55 79 b9 be 4d d8 24 3c ae 07 5d be 17 c9 77 be
       -0.36225381 0.010061336 -0.21584961 -0.24197803
000140 59 8d 61 bd 54 47 1f be 35 5d b2 3e 2c 88 ab bd
       -0.05506644 -0.15554553 0.34836736 -0.08375582
000150 84 d6 8d 3e 53 71 4a 3c 65 01 a1 3e 1a 5c 24 be
       0.27702725 0.01235612 0.31446376 -0.16050759
000160 5d 71 49 be cb ed 6f 3e 43 d2 56 3e df 02 2e 3e
       -0.19672151 0.23430555 0.20978646 0.16993283
000170 df 43 00 be e2 3b b7 be 76 21 b5 3d a5 73 b3 be
       -0.12525891 -0.35787874 0.08844273 -0.35049167
000180 11 f9 87 3e 1e 3c 8d 3e c3 2f 79 be 17 17 42 3e
       0.2655721 0.27584928 -0.24334626 0.1895412
000190 60 84 9b 3e c5 59 3c 3e a1 13 86 3e 56 fc 8b be
       0.30374432 0.1839362 0.2618685 -0.27340955
0001a0 13 f1 1b bd ac 11 28 be 9f 6f d9 be 17 15 49 bd
       -0.038071703 -0.16412991 -0.42467973 -0.04909238
0001b0 38 7c 0e 3e e9 af 97 3e 31 ba 33 3e cd 69 86 3e
       0.13914573 0.29626396 0.17551495 0.26252595
0001c0 10 f0 91 bd 8e ec 2a be c6 f0 99 3d 7c 36 3f be
       -0.071258664 -0.16691801 0.07516627 -0.18673128
0001d0 58 3c bb bd b8 ad 84 be 73 85 99 be b2 6c 81 be
       -0.09142369 -0.25913787 -0.29984626 -0.2527824
0001e0 55 33 28 3e be 52 7a bd 82 12 ac 3d 3b e1 27 be
       0.16425832 -0.061114065 0.084019676 -0.16394512
0001f0 35 db ac be d6 8b 5d 3d 86 35 7e be 15 47 8b 3e
       -0.33760992 0.054088436 -0.24825105 0.2720267
000200 e0 a9 6e 3e 67 26 ff 3c b4 a8 b5 bc 87 e6 11 bd
       0.2330699 0.031146241 -0.02217517 -0.03562024
000210 0b f9 82 3e 37 21 ef 3d de a0 08 3d 55 f8 2b be
       0.2558063 0.11676257 0.03335654 -0.1679395
000220 a7 81 59 3e 2b 5b 60 be 00 cb a2 3d 15 5a 6c 3d
       0.21240865 -0.21909778 0.079488754 0.057703096
000230 93 1d 41 3e 2a 9b ab be 5a cf 79 be 34 d6 fe 3d
       0.18858938 -0.33516818 -0.24395505 0.124432
000240 6a 36 2d 3c f4 c9 6c be 46 9f 88 be 47 c1 55 be
       0.010572055 -0.23123914 -0.26684016 -0.2087451
000250 7d 15 9f 3e 86 cd 52 3e 8d 27 0c 3e 8f 67 81 be
       0.31071082 0.20586213 0.13686962 -0.2527432
000260 49 b0 7d be 90 89 5c 3e 58 a0 f6 bd 6e 0a 87 be
       -0.24774279 0.21536851 -0.12042302 -0.26375145
000270 3e 2e f1 3d 4f fa 50 be 7b 5f 0e be e0 10 12 be
       0.11776398 -0.20407985 -0.1390361 -0.1426425
000280 3e 3d 6b be 0c 2b cd be 9d d6 11 3e ba 1b 3d be
       -0.22972581 -0.40071905 0.14242025 -0.18467608
000290 6f 21 9a 3e 44 46 84 3b a7 f1 a2 3d c1 0b 55 3e
       0.30103633 0.0040366966 0.07956248 0.20805265
0002a0 13 10 9f be 01 12 ba be 18 4d 55 3e 22 8d 97 bd
       -0.3106695 -0.3634186 0.2083019 -0.07399966
0002b0 fc d1 73 3e 2c ca 14 3d 47 f6 17 bd 9c 2b 5c 3e
       0.23810571 0.03632562 -0.037100103 0.2150101
0002c0 19 ff 71 3c 05 73 c8 bc 5c e0 97 3d 4c d0 01 3e
       0.014770293 -0.024468908 0.0741584 0.12677115
0002d0 4b 0a 78 3e f2 75 cf bd 87 53 5b 3d d0 ee 31 be
       0.24222676 -0.10129918 0.053546455 -0.17376256
0002e0 83 59 ef 3d 90 c8 48 3e af 70 d1 bd c9 0b 12 3e
       0.11686995 0.19607759 -0.10226571 0.14262308
0002f0 7f 98 6b bd fc b9 68 3e 0c ec 0e 3e 2c f0 32 be
       -0.05751848 0.22727197 0.13957232 -0.17474431
000300 42 b9 83 bd e5 e4 d9 3d f8 35 97 be 51 9e 27 be
       -0.064318195 0.10639361 -0.29533362 -0.16368987
000310 43 21 74 be 18 a1 b5 bc b6 55 09 3e 7d d6 ad be
       -0.23840813 -0.022171542 0.13411602 -0.33952704
000320 97 46 b1 3e 5e 40 bc be 93 8a 9e be c4 f3 64 be
       0.34624168 -0.36767858 -0.309651 -0.22358614
000330 40 b8 a4 be 60 57 b8 be ef b9 37 be 32 ae 62 3e
       -0.32171822 -0.36004162 -0.17942022 0.22136763
000340 83 90 4f be 35 1c 96 be 0c 85 29 3b c0 c9 97 be
       -0.2026997 -0.29318395 0.0025866656 -0.2964611
000350 8c 90 be be 87 51 ce 3e d3 a6 43 3e 36 59 9c be
       -0.37219656 0.40296575 0.19106607 -0.30536813
000360 e8 e6 3f 3e b0 06 9a be a2 6c d9 3d 50 7f c8 bd
       0.18740427 -0.30083227 0.10616423 -0.09789908
000370 3a c3 07 3e db 42 c2 bd dd 9e b8 3d ac 1a 97 3e
       0.13258067 -0.09485408 0.09014676 0.29512537

model.0.bias f4 [32]
000000 c1 74 48 be aa 98 7a be d8 4c 4e 3e 38 a6 bd bd
       -0.19575788 -0.24472299 0.20146501 -0.09260219
000010 11 f9 5d 3e ef 81 c6 bc c3 9b c0 3e 93 6d 84 3e
       0.21677043 -0.024231879 0.37618837 0.25864848
000020 b1 73 bb 3d 35 70 3c 3e de d8 95 be 81 a5 70 3e
       0.09152926 0.18402179 -0.2926702 0.23500635
000030 a5 1d 44 3e a0 49 8d 3e 82 37 a8 be aa df b0 be
       0.19151933 0.27595234 -0.3285485 -0.34545642
000040 2d a0 d8 3d 33 ad 31 3e 28 24 b2 be 23 cc ab 3e
       0.10577426 0.17351227 -0.3479321 0.3355418
000050 83 78 38 3e fe 93 24 3a db 6a 1e 3e 7a e9 d2 bd
       0.18014722 0.0006278156 0.1547045 -0.10298438
000060 60 67 50 3e 18 3f 98 3e bb 9b 95 3e e0 d1 3c be
       0.20351934 0.29735637 0.29220375 -0.18439436
000070 ec ad a2 3d d3 20 ef bc e2 fa 6e 3d e4 d2 46 be
       0.07943329 -0.029190456 0.05834473 -0.19416386

model.2.weight f4 [3, 32]
000000 74 a9 bb bd aa 0d 7e 3d 70 72 09 be ba 2e c1 bb
       -0.0916318 0.06202475 -0.1342256 -0.005895463
000010 ed 1d 27 3d 70 c2 08 bd 47 1c 0c bd 1f f6 1c be
       0.040800024 -0.033388555 -0.034206655 -0.15328263
000020 71 dd e9 3d 40 0d e5 bd a6 c6 83 3c 63 90 09 be
       0.1141919 -0.11184168 0.016085934 -0.13433985
000030 f7 b8 eb bd 7a c8 83 be 82 0b 21 bd 0b 9b 94 3c
       -0.115098886 -0.2573889 -0.039317615 0.018140336
000040 76 69 8a 3d a8 29 a8 bd a1 33 c7 3c 61 ef 0e be
       0.06758396 -0.0821107 0.02431661 -0.13958503
000050 76 bf b7 bd 7b 0f 1d be 75 86 11 3e 03 5e 3d 3d
       -0.08972065 -0.15337937 0.14211448 0.046232235
000060 76 37 3a 3c 99 52 45 bd 0c 44 c6 3c 0a b3 7f bd
       0.011365762 -0.048174474 0.02420237 -0.062426604
000070 e7 ae 88 bd 00 95 a4 bd 5a b0 0d 3e b4 d6 80 3c
       -0.06673985 -0.08036232 0.13836804 0.015727378
000080 98 f8 14 3e 5e da 74 3d b5 57 86 bd c9 0f e3 bd
       0.14547956 0.059778564 -0.065596975 -0.11086995
000090 a0 05 fe bd 70 ed e6 bd 75 0c cb bd 02 cf 01 be
       -0.12403417 -0.11275756 -0.09914485 -0.12676623
0000a0 d5 ff 91 bd ca 19 01 3e 97 fa 98 bd 20 3b 34 3e
       -0.07128874 0.12607494 -0.07469671 0.1760068
0000b0 ed 05 63 3d dd 4e 6c bd 40 c2 6f 3c 76 86 25 bd
       0.055425573 -0.057692397 0.014633715 -0.040411435
0000c0 02 80 a4 bd a5 57 9c 3d e7 2e cd bd 68 52 4b bd
       -0.08032228 0.07633904 -0.100187115 -0.049639136
0000d0 26 22 40 3d 1f 63 83 bb ce 26 18 be 92 f3 e9 3b
       0.046907566 -0.004009619 -0.14858553 0.0071396315
0000e0 04 be d8 bd eb 04 9a 3d 45 77 58 3c c2 a6 50 3d
       -0.105831176 0.07520469 0.01321203 0.050940283
0000f0 bf 6b f4 bc 4e a6 bb 3d c6 7a c1 bd 08 9b 54 3d
       -0.029836534 0.091625795 -0.09447245 0.05190566
000100 dc 0f 21 3e 61 cd 70 bd ed 50 40 bc ab f2 b7 bd
       0.15728706 -0.058789615 -0.011738044 -0.08981832
000110 35 37 33 bb c1 68 22 3d 11 9f 27 3e 49 83 17 3e
       -0.0027346138 0.039650682 0.16369273 0.14796175
000120 5d 4d 17 be f5 fb b4 bd ab 42 a8 bd 7c d8 10 3e
       -0.14775605 -0.088371195 -0.08215841 0.14145082
000130 5c d8 1f 3e f3 b7 a6 3d 6c 70 2b be b7 be d7 bd
       0.15609878 0.08140554 -0.16742104 -0.10534423
000140 4c 47 d2 bd 4d 61 59 3a e6 5d 98 3d 7d 28 d6 bd
       -0.10267505 0.0008292392 0.07439785 -0.10456941
000150 d8 a9 22 be f1 82 7b 3d f1 30 75 3d 5e 4c f9 bd
       -0.15885103 0.061404172 0.059861127 -0.12172769
000160 bc e0 77 bd ca 53 04 3e 15 92 c7 bd 4b a8 d2 3c
       -0.060517058 0.12922588 -0.0974466 0.025715014
000170 63 38 0d be a4 07 53 bd 6d 56 05 be d8 87 1c 3d
       -0.13791041 -0.05152096 -0.1302125 0.03821549

model.2.bias f4 [3]
000000 cf 80 25 be 18 77 84 3d b2 72 ba bd
       -0.16162418 0.06468028 -0.09103908
