trained_models/example_model.pth (torch, 2911 bytes, 4 tensors)

model.0.weight f4 [32, 7]
000000 53 a2 75 3e 1e 07 98 3e 0f c6 55 be 1d 6a 80 3e
       0.23987703 0.2969293 -0.20876335 0.25080958
000010 f0 9b bf be c4 f6 ae 3d d4 5a 6f 3e 83 7d 06 bc
       -0.37423658 0.085431606 0.23374492 -0.008208635
000020 c7 48 94 3e 2a 52 4b be 40 38 86 3e 6e f7 9f 3e
       0.28961775 -0.19855562 0.2621479 0.3124346
000030 b9 00 c7 be b6 38 f7 bd d8 8a f2 bd 2a fa d5 3d
       -0.3886774 -0.12071364 -0.118428886 0.10448106
000040 4a 37 e2 3d 9f 6e cf 3d b9 ea ab 3e 43 ac fe bd
       0.11045702 0.10128521 0.33577517 -0.124352
000050 56 2a a9 3e f2 d5 c2 be a5 d6 6e 3e b8 36 9d be
       0.33040112 -0.38053852 0.23324068 -0.3070581
000060 43 94 08 bd ee a6 9e 3c 51 1c d5 3d c4 7f b4 3c
       -0.03334452 0.019366708 0.104057916 0.02203358
000070 42 16 22 3e bd a2 89 be 52 00 06 bd 67 86 97 3d
       0.15828803 -0.26881972 -0.03271515 0.07398682
000080 5c dc 73 3e 78 4e 71 be bb 86 6a 3e 23 ff af bd
       0.23814529 -0.2356509 0.22902958 -0.08593585
000090 d5 ce 5d 3e df 20 80 3e 47 bd bc 3c f4 73 84 bc
       0.21660931 0.2502508 0.023039473 -0.016168572
0000a0 e6 7d 55 3e e9 2e 23 3d bd b6 ad be 9f 4e 9b 3e
       0.20848808 0.03983966 -0.3392848 0.3033342
0000b0 9e 1a bb be 14 85 a7 3d 3e 17 36 be 43 27 bc be
       -0.36543745 0.081796795 -0.17782304 -0.36748704
0000c0 51 fc 5e be 80 9e 65 3d 36 2d 32 3e b0 ad c5 3d
       -0.21775939 0.05605936 0.17400059 0.09652269
0000d0 0b 2a 81 be 83 07 ac 3e 41 78 e4 bd 00 9e b8 be
       -0.2522739 0.3359948 -0.11155749 -0.36058044
0000e0 49 25 90 be 3c 35 ac 3c 33 27 a2 3e 8a 68 cd 3d
       -0.28153446 0.021021478 0.31670532 0.10029705
0000f0 ca dc bc 3d c5 d6 6b 3e 6b f1 3b 3e c0 cb be 3e
       0.092218 0.23031147 0.18353812 0.37264824
000100 6b 3d 21 be bd e7 58 3e 7b 4c 6a 3e 00 f2 8f be
       -0.15746085 0.21182151 0.22880737 -0.2811432
000110 34 ae 18 3d 45 2e a1 be 37 df 1e bd f5 7a 13 3e
       0.037275508 -0.31480613 -0.038787093 0.14402373
000120 34 01 bc bc 92 60 34 be aa d5 05 be 5e 14 81 3e
       -0.022949792 -0.17614964 -0.13069788 0.2521085
000130 59 a8 33 3d f0 2e c7 bd b7 34 4c be f1 92 18 be
       0.04386172 -0.097257495 -0.19941984 -0.14899804
000140 92 41 f7 bd 54 54 88 3e d7 04 30 3d f3 1f 2f 3e
       -0.120730534 0.26626837 0.042973366 0.17102031
000150 98 b1 39 3e f1 76 44 be be 2c da bd 76 fe 5f 3e
       0.18134153 -0.19185998 -0.10653065 0.21874413
000160 ed 72 ac 3e 01 26 cd be af dc 96 3e 88 1f a7 3e
       0.3368143 -0.40068057 0.29465243 0.32641244
000170 bd 4f 88 3e 88 1f ee bd 36 25 6d bd e0 f8 dc bd
       0.26623335 -0.11627108 -0.057896815 -0.10789657
000180 10 8f 90 3d bc 58 fb bd d4 52 99 be 18 1c 7d 3e
       0.07058537 -0.12272784 -0.29946005 0.24717748
000190 79 6b 97 be 93 30 97 3e 77 cf b8 3e 72 07 c9 be
       -0.29574183 0.29529247 0.36095783 -0.39263493
0001a0 9e e9 8c 3d 63 19 99 3e 2e fc 1e bd 37 e4 af 3e
       0.068804964 0.2990218 -0.038814716 0.34353802
0001b0 42 f2 9c be f5 32 4a be 94 ac 88 3e 63 88 66 3e
       -0.30653578 -0.19746001 0.26694167 0.22512965
0001c0 f1 6a 7f 3e 3e 9f b1 bd 4d 9e 91 bd 4c 99 a8 3e
       0.24943139 -0.08672951 -0.071102716 0.32929456
0001d0 a5 dc c8 be cc ca bf 3d 18 b7 8a 3e f6 32 14 3e
       -0.39230838 0.09364852 0.27092814 0.14472565
0001e0 5c 7f 6b be d5 6a 30 bd 0f 97 a3 3e 6b e9 d9 3d
       -0.22997802 -0.043070633 0.31951186 0.10640224
0001f0 f6 2d d6 bd 11 3b 16 3e db ef 34 be 88 21 8d 3e
       -0.10457985 0.1467097 -0.17669623 0.27564645
000200 25 01 a1 3d d8 f7 ab be 70 97 d9 bd 01 95 96 3e
       0.078615464 -0.33587527 -0.106245875 0.29410556
000210 19 fd ee 3d 22 2c 8f 3e 46 65 96 bd 02 c0 84 bd
       0.11669368 0.27963358 -0.07343535 -0.06481935
000220 35 90 f1 3d 2a e9 a0 3e 0e c5 13 be 5b f4 97 3e
       0.117950834 0.3142789 -0.14430639 0.29678616
000230 fc 54 57 be 14 eb 95 be a3 b8 91 be ae b1 d7 3d
       -0.21028513 -0.29280913 -0.2846118 0.105319366
000240 fb 10 95 be 34 b4 89 bd 72 c0 fa 3d 29 58 45 be
       -0.29114518 -0.06723824 0.12243737 -0.19271912
000250 13 89 8b bc ce 74 8b 3e 0c e9 32 bd c7 b5 a9 3e
       -0.017033136 0.27237552 -0.043679282 0.33146498
000260 89 48 8b be ab 7d 88 3d 0b 6b 01 be b6 19 20 3b
       -0.27203777 0.06664594 -0.1263849 0.0024429387
000270 d9 ee bd be 87 a9 23 be 80 2e a5 3d 4b 06 b6 3e
       -0.3709629 -0.15982638 0.0806551 0.35551676
000280 bc cb e3 bd 32 23 95 be 6e fe 72 be f5 34 05 3e
       -0.111228436 -0.29128414 -0.2372987 0.13008483
000290 f9 60 84 3e 4d db a6 be c5 2e 1d 3e a7 df ec bd
       0.25855234 -0.32589188 0.15349872 -0.11566096
0002a0 ab c1 ba 3d 90 cd 63 3e 8f af 2c 3e fc d8 71 3e
       0.091189705 0.22246385 0.16863845 0.23617929
0002b0 81 b2 ef bd 3c 22 81 3b bc a3 95 3e 86 bf 6b 3e
       -0.11703969 0.0039408486 0.29226482 0.23022279
0002c0 c4 0f 80 be 9e 8d 9e be da 42 9c 3e 4b 85 5a be
       -0.25012028 -0.3096742 0.30519754 -0.2133991
0002d0 74 c5 62 3e 1d 78 b9 be 0d 61 97 3d da 07 95 3d
       0.22145635 -0.36224452 0.07391558 0.07276888
0002e0 f9 e1 0f be 0b a3 b1 be 68 e1 1d be 6e f6 35 3e
       -0.14051045 -0.34694704 -0.15418017 0.17769787
0002f0 62 b5 86 bd 1c 9e 97 be aa c9 9b 3e 23 e7 33 3e
       -0.06577565 -0.29612815 0.30427295 0.1756864
000300 0d e5 b1 be 98 6f 4c be 9d 4d 83 be 9f c4 2f 3d
       -0.34745064 -0.19964445 -0.25645152 0.04291212
000310 94 60 83 3d dd c9 8d be 09 bc b8 be 5b 84 11 be
       0.06414905 -0.27693072 -0.3608096 -0.14210646
000320 fa 9a b6 be f2 8a 9f be cd 77 af bd e1 04 82 be
       -0.35665113 -0.31160694 -0.08567772 -0.25394347
000330 09 72 9c be 06 f5 89 bd 97 b0 ae bd 2e de 93 bc
       -0.30555752 -0.06736188 -0.085297756 -0.01805028
000340 f9 57 87 be b4 f8 a5 3e 22 c0 26 3e b1 19 e6 bd
       -0.26434305 0.32416308 0.1628423 -0.11235369
000350 9a bd a5 3e d9 de ab be eb 96 99 be bd 73 9d be
       0.32371217 -0.33568457 -0.29997954 -0.30752364
000360 c8 3f 5d 3e 18 42 61 be 83 73 b2 bd 32 56 24 be
       0.21606362 -0.21997869 -0.08713438 -0.16048506
000370 bb e0 f2 3c 6c 7f b3 3e 13 d3 5c bd d4 bc 88 3c
       0.029648175 0.35058153 -0.053912234 0.016691603

model.0.bias f4 [32]
000000 5a 69 32 3e 6e 19 b9 3e 25 d4 9e 3e 28 6a 21 3e
       0.17423001 0.36152214 0.31021228 0.15763152
000010 fc f8 70 3e 58 26 84 3e 85 57 22 3e ef 8a 0b 3d
       0.2353248 0.25810504 0.15853699 0.034068044
000020 f2 cb 0d 3e 31 ad 55 be 49 0f 9c be 80 2d 92 3d
       0.1384733 -0.20866849 -0.30480412 0.07137585
000030 7f 2e f9 3d 22 13 f7 ba 63 69 dd 3d 5d 57 aa 3e
       0.121670716 -0.0018850307 0.108111165 0.33269778
000040 87 84 34 3d 38 04 6a 3d ca 85 65 3e 9e 52 8a 3d
       0.0440717 0.05713293 0.22414318 0.06754039
000050 6d f0 bd be 80 e3 b0 3e de 8d b9 be 7a ea 11 be
       -0.37097493 0.3454857 -0.3624105 -0.14249602
000060 ce 5f 14 3d 9d 71 2f bd 0d bf 9f 3e 3a b7 99 be
       0.03622418 -0.04283296 0.31200448 -0.30022603
000070 4d 66 71 3e eb ed 6b 3d 95 8c 62 3e cd 4d 86 3e
       0.23574181 0.057599943 0.2212394 0.26231232

model.2.weight f4 [3, 32]
000000 f7 f9 50 be 99 54 ef 3c 16 e7 26 3e 25 cf b5 3d
       -0.20407854 0.029215144 0.1629909 0.088774
000010 a1 74 b6 bb 89 7e df bd 08 dc 59 3d d7 05 a3 bd
       -0.0055681025 -0.109128065 0.053188354 -0.07960098
000020 7d 7b 1b 3e f0 12 70 bd d2 26 6f bd 87 9e a4 3d
       0.15183826 -0.05861181 -0.05838663 0.08038049
000030 3f 35 0a 3e 5b 56 5c bd 01 7a 47 3e 2f 45 5f be
       0.13496874 -0.053793292 0.19480135 -0.21803735
000040 e0 30 f2 bd 63 69 69 bd 1c a7 d5 3c 2c e9 1f bd
       -0.118257284 -0.05698527 0.02608066 -0.03904073
000050 70 4a a1 3c e3 76 fe bc 1c 5d 1b 3e ad 36 ab bc
       0.019688815 -0.031062549 0.15172237 -0.020900095
000060 44 92 9e bd d2 29 e5 ba 26 32 0d be 23 4e aa bd
       -0.07742742 -0.0017483777 -0.13788661 -0.08315685
000070 ce cd 22 be a2 83 34 be 7f 35 21 be 41 f3 6a bc
       -0.15898821 -0.17628339 -0.15743063 -0.014340223
000080 e8 65 ae bd 7a 47 80 bd 31 15 b3 3d 09 23 1b be
       -0.08515531 -0.06263633 0.08744276 -0.15150084
000090 a7 a1 67 bd 8a 04 bc 3a 27 13 b6 bd d5 77 0c 3e
       -0.056550648 0.0014344614 -0.08890372 0.13717587
0000a0 a0 ea c5 3d 0c 0e f1 bc 7f 8d c5 3d 54 1b 6a bc
       0.09663892 -0.029425643 0.09646129 -0.014288742
0000b0 cd 88 09 3d d8 fb 51 3c cd 6c 1c bd 47 0c f0 bd
       0.03357773 0.012816392 -0.038189698 -0.11721092
0000c0 42 76 18 3e a4 af 49 bc c4 f5 01 be 14 28 fa 3c
       0.14888862 -0.012309942 -0.12691408 0.030536689
0000d0 6f 23 b9 bd a0 89 be 3d 2c dd 5a bd 82 95 18 be
       -0.090399615 0.09303594 -0.053433582 -0.14900783
0000e0 8d c6 8d bd d7 a3 f8 bd 5f e6 34 3e f0 51 28 3e
       -0.06922636 -0.12140625 0.17666005 0.16437507
0000f0 9a b5 44 3d b5 28 c9 3d c7 db 28 bd 8a a2 07 be
       0.04802475 0.098222174 -0.04122522 -0.13245597
000100 8d 0f af 3d 93 4e 5b be a3 f4 74 3d 34 18 81 3c
       0.08547888 -0.21416692 0.059803616 0.015758611
000110 e2 90 28 3d 50 30 b6 3c d1 a7 7a bb 57 77 22 3e
       0.041153796 0.022239834 -0.0038247 0.15865837
000120 8a 31 0b 3e f1 7a 97 bd 3a 4c 30 3e f0 b5 23 be
       0.13593116 -0.07396496 0.17216578 -0.15987372
000130 96 0a 7e bd 5d 41 e0 bd 59 87 74 bd bb d3 05 bd
       -0.062021814 -0.10949967 -0.05969939 -0.032672625
000140 4f 80 ec 3c 4f 3a 03 be 4b 8b 76 3d 6d 79 1b bc
       0.028869776 -0.12815212 0.060191434 -0.009489399
000150 85 90 41 3d d3 a4 a8 bd 3f 0a 69 3c 1e c4 21 be
       0.047256965 -0.08234563 0.014223634 -0.15797469
000160 52 51 44 bd d9 6a a7 3c cc 9d 6b bd 3e 1a 95 3d
       -0.047929116 0.020436691 -0.057523534 0.07280396
000170 ac e6 a2 bd c4 8a 02 3e 09 46 22 3e 00 97 a9 3c
       -0.079541534 0.12748247 0.15847029 0.020701885

model.2.bias f4 [3]
000000 7e f0 18 3d 47 c6 88 bd b7 f2 86 3d
       0.037338726 -0.066784434 0.06589263
