trained_models/example_model.pth (torch, 3679 bytes, 4 tensors)

model.0.weight f4 [32, 10]
0	0x3dae639d	0.085150935
1	0x3e8de197	0.27711174
2	0xbe54598a	-0.20737281
3	0xbe0f673a	-0.14004222
4	0xbe9f8fc7	-0.3116438
5	0x3e6ae7ed	0.22940035
6	0x3e4ad1aa	0.19806543
7	0xbe91fa96	-0.28511494
8	0xbe2fba7c	-0.17160982
9	0x3e69ea07	0.2284318
10	0xbdfebef6	-0.12438767
11	0xbe1c1192	-0.15241078
12	0x3e76a285	0.24085434
13	0x3de1176b	0.10990795
14	0xbe8b9327	-0.27260706
15	0x3dc1a8f2	0.09456052
16	0x3e37d5b0	0.17952609
17	0x3d933445	0.07187704
18	0xbc2334a5	-0.009961282
19	0xbe8b3596	-0.2718932
20	0xbda43bbd	-0.08019207
21	0xbdb1c713	-0.086805485
22	0xbedb3556	-0.4281413
23	0x3eb67825	0.35638538
24	0x3db97872	0.09056176
25	0xbe049b00	-0.12949753
26	0x3ea3c499	0.3198593
27	0x3e93e77c	0.28887546
28	0x3e365934	0.17807466
29	0xbddf0be7	-0.10890942
30	0x3d5ae59e	0.053441636
31	0xbe3b21c5	-0.18274601
32	0x3e9a36ca	0.30119926
33	0xbe107a9a	-0.14109269
34	0xbe3bb38f	-0.18330215
35	0xbe5677cd	-0.20944138
36	0xbe2c566d	-0.16829844
37	0xbdafe694	-0.08588901
38	0x3c314dc1	0.010821761
39	0xbe768202	-0.24073032
40	0xbe57b7d8	-0.21066225
41	0x3df39fbe	0.11895703
42	0x3d6fb919	0.058526132
43	0xbdb75626	-0.089519784
44	0xbde007c7	-0.109389834
45	0xbe53c401	-0.20680238
46	0x3e30a2dc	0.17249626
47	0x3e8cc589	0.27494457
48	0x3e2a6ad7	0.16642319
49	0xbe501a9b	-0.20322649
50	0x3dae1993	0.08500972
51	0xbe0f937d	-0.14021106
52	0x3d0bc9f4	0.034128144
53	0xbe45d681	-0.19320108
54	0x3dbcaf14	0.09213081
55	0xbe713895	-0.2355674
56	0x3c484d99	0.012225532
57	0x3e6d33d6	0.23164305
58	0x3cbe9b86	0.023267519
59	0xbbf7bb29	-0.007560153
60	0x3df7609f	0.12078976
61	0x3d40eb81	0.047099594
62	0x3d0df74e	0.034659676
63	0xbe0344ce	-0.12819216
64	0xbe92066c	-0.28520525
65	0xbe40f8a6	-0.18844852
66	0xbe0d5c14	-0.13804656
67	0x3da794dd	0.0818269
68	0x3e3ca5a9	0.1842257
69	0x3e2fabca	0.17155376
70	0x3e119112	0.14215496
71	0x3d86271e	0.0655043
72	0xbcb37b92	-0.021909509
73	0xbe1af648	-0.15133011
74	0xbadbe85b	-0.0016777621
75	0x3e0567f5	0.13027938
76	0x3e475667	0.19466554
77	0xbde91e44	-0.11382726
78	0x3dd55eb0	0.10418451
79	0x3e3c1a29	0.18369354
80	0xbdc42cec	-0.09578881
81	0xbcfd9123	-0.030952996
82	0x3d0cf370	0.034411848
83	0x3d9c7e35	0.076412596
84	0xbd41c879	-0.047310326
85	0x3b416aa5	0.0029513028
86	0xbe796198	-0.24353635
87	0x3d819a1d	0.06328223
88	0xbcee6b2c	-0.029103838
89	0x3e8c8862	0.27447802
90	0x3e7e422e	0.24829933
91	0x3e83f35e	0.25771612
92	0x3e90ee95	0.28307024
93	0x3e915a1d	0.28389063
94	0x3d57cc8c	0.052685305
95	0xbcc22cab	-0.02370294
96	0xbe9826bc	-0.29717052
97	0xbea54321	-0.32277778
98	0xbe9c5736	-0.30535287
99	0xbdc99ec1	-0.09844733
100	0x3e952a14	0.29133666
101	0x3e5a55fd	0.21321864
102	0x3e417c04	0.18894964
103	0x3e8a3741	0.2699528
104	0xbe9136f7	-0.28362247
105	0xbe445979	-0.19174756
106	0xbe97421e	-0.2954263
107	0xbd47d331	-0.048785392
108	0xbe2f7bf7	-0.17137133
109	0x3e98f2dd	0.2987279
110	0xbd00846a	-0.03137628
111	0xbdbdbc36	-0.09264414
112	0xbd8c059f	-0.0683701
113	0x3e1b450d	0.1516306
114	0xbd931a66	-0.071827695
115	0xbc66ceaf	-0.014087363
116	0xbdfbaa54	-0.12288347
117	0xbb97bc27	-0.004630584
118	0xbe492796	-0.19644007
119	0xbe4e746e	-0.20161602
120	0x3e56b6ba	0.20968142
121	0x3e7287b1	0.23684575
122	0xbec4e4d6	-0.38455838
123	0xbdf1e043	-0.11810353
124	0xbd9fe152	-0.07806648
125	0x3cebed6d	0.028799737
126	0x3e673a76	0.22580895
127	0x3e1410e1	0.14459564
128	0x3e89b54c	0.2689613
129	0x3ddc375d	0.10752747
130	0x3e1d36cc	0.15352935
131	0xbdacdbe8	-0.08440381
132	0x3e23cab8	0.159953
133	0xbdf9eb3b	-0.1220307
134	0xbe60c6e7	-0.21950875
135	0xbe9a5a61	-0.3014708
136	0x3e054ee8	0.13018382
137	0x3e8060b0	0.25073767
138	0xbd6349cd	-0.055490304
139	0x3e7c0b14	0.24613601
140	0xbe6aafd4	-0.22918636
141	0xbb955331	-0.0045570363
142	0xbe482b74	-0.19547826
143	0xbdf79671	-0.12089241
144	0x3e808dc7	0.25108168
145	0xbe9e7d14	-0.30954802
146	0xbe4c6add	-0.1996264
147	0x3e48c7a4	0.19607407
148	0x3e014bf0	0.12626624
149	0xbe2bac84	-0.16765028
150	0x3e1e2ef1	0.15447594
151	0xbd1cbec6	-0.038267873
152	0xbd21fe44	-0.039549127
153	0xbe9ca93a	-0.3059786
154	0xbe0d6589	-0.13808264
155	0xbc268a4d	-0.010164809
156	0xbd9fc0de	-0.07800458
157	0x3e35887c	0.17727846
158	0x3d084ebf	0.033278223
159	0xbc6e77ee	-0.014554961
160	0xbca24379	-0.019807564
161	0x3dd40980	0.103533745
162	0x3e004375	0.12525733
163	0x3dc2eb31	0.095175155
164	0x3dc89c98	0.09795493
165	0x3e8e5ebd	0.27806655
166	0x3e37c1d7	0.17945038
167	0xbe5f8106	-0.21826562
168	0xbca0e058	-0.019638225
169	0x3e0c3bbe	0.13694665
170	0xbd82cb52	-0.063864365
171	0x3df7eb72	0.121054545
172	0x3d0f7910	0.035027564
173	0xbe8a953e	-0.27066988
174	0x3dcb6c91	0.09932817
175	0xbe23c53d	-0.15993209
176	0x3e236412	0.15956143
177	0x3e9762c6	0.29567546
178	0xbe3a51a9	-0.18195213
179	0xbd40550f	-0.04695612
180	0x3e3eebb9	0.18644609
181	0x3e8c50c6	0.27405375
182	0x3e02d088	0.12774861
183	0xbdd8a8de	-0.10579084
184	0xbdf34e30	-0.118801475
185	0x3e0cbacc	0.13743132
186	0xbe90e119	-0.28296736
187	0xbe09290e	-0.13394567
188	0x3d413d13	0.047177386
189	0x3de4c45c	0.11170265
190	0xbdca5d06	-0.09881024
191	0xbe85f3c5	-0.26162544
192	0x3e83ac1e	0.25717252
193	0xbe959fd3	-0.292235
194	0x3e8e1428	0.27749753
195	0x3b46ba17	0.003032332
196	0xbddaf5f6	-0.106914446
197	0xbe2bbc53	-0.16771059
198	0x3da624df	0.08112501
199	0x3d1a7cb6	0.03771659
200	0x3e9b9624	0.30387986
201	0xbd35a69a	-0.044348337
202	0xbe50d0a4	-0.2039209
203	0xbda3aa53	-0.07991471
204	0xbe2ebc1e	-0.17063949
205	0x3df0b931	0.117540725
206	0x3e6360f1	0.22204949
207	0xbe86aa37	-0.2630174
208	0x3e126998	0.14298093
209	0xbcf9f123	-0.03051049
210	0x3e86f66f	0.2635989
211	0x3e8b2db9	0.2718332
212	0xbe9547bc	-0.2915629
213	0x3de0c2fc	0.1097469
214	0xbe7ecc75	-0.24882682
215	0xbe4e2c06	-0.20133981
216	0xbe34d532	-0.17659453
217	0xbe228dc6	-0.15874395
218	0xbe5fd22b	-0.21857516
219	0x3e9fe7e3	0.31231603
220	0xbe9a9146	-0.3018896
221	0xbe0bf3a8	-0.13667166
222	0xbe44d546	-0.19221982
223	0x3c9c00b8	0.019043311
224	0xbdb057e3	-0.08610513
225	0x3e5960dd	0.21228357
226	0x3e8f8af1	0.2803569
227	0xbe4ba994	-0.19888908
228	0xbe4d8ee6	-0.20074043
229	0xbe74fc51	-0.23924376
230	0xbe9e43ce	-0.30911106
231	0x3e26ffe9	0.1630856
232	0x3cecb75c	0.028896026
233	0x3b81ae39	0.0039575365
234	0x3e165055	0.14679082
235	0x3e66d02d	0.2254035
236	0xbe36f847	-0.17868148
237	0x3e869451	0.2628503
238	0xbe922264	-0.28541863
239	0xbe6c5758	-0.23080194
240	0x3e632a54	0.22184116
241	0x3e6eef79	0.23333539
242	0x3e89c68a	0.26909286
243	0xbeac4379	-0.33645228
244	0xbd974201	-0.07385636
245	0x3e46e4bc	0.19423193
246	0xbe7dfc9f	-0.24803399
247	0x3e3054e2	0.1721988
248	0x3e1b0f02	0.15142444
249	0x3e1f2a02	0.15543368
250	0xbd4da98e	-0.050210528
251	0xbe14f1c1	-0.14545347
252	0x3e77b5e1	0.24190475
253	0x3e4f9620	0.20272112
254	0x3e8f3d15	0.2797629
255	0x3e3f0914	0.18655807

model.0.bias f4 [32]
0	0x3d9b8e62	0.07595517
1	0x3d464ea7	0.048414852
2	0xbd73eca7	-0.05955186
3	0x3dc8ff84	0.09814361
4	0x3c8d4f96	0.017249864
5	0x3ddbd39e	0.10733722
6	0x3dd39587	0.103312545
7	0xbe95c768	-0.29253697
8	0x3e040630	0.12892985
9	0xbd938157	-0.07202404
10	0xbe42864c	-0.18996543
11	0x3d81d3a8	0.06339198
12	0x3e9f2b56	0.3108775
13	0xbe0a4741	-0.13503744
14	0xbe004448	-0.12526047
15	0xbe783560	-0.24239111
16	0x3e0f0abe	0.13968942
17	0x3c995c78	0.01872085
18	0x3e9ce334	0.30642092
19	0x3e5c87d1	0.21536185
20	0xbe93e3f2	-0.28884846
21	0x3e2d3f1a	0.16918603
22	0x3dcc348a	0.099709585
23	0x3e6eb180	0.23309898
24	0x3e04c2fb	0.12965004
25	0xbe747857	-0.23874031
26	0xbd52039b	-0.05127297
27	0x3e6b542d	0.2298133
28	0xbca2d80a	-0.019878406
29	0x3e9482d2	0.29006058
30	0x3e8ab972	0.2709461
31	0x3c388c9b	0.011263992

model.2.weight f4 [6, 32]
0	0xbd099ec1	-0.033598665
1	0xbdd1d75e	-0.10246156
2	0x3d98461e	0.07435249
3	0x3e1a3de3	0.1506267
4	0xbd026db1	-0.03184289
5	0xbe2ac756	-0.16677603
6	0x3e2bf42b	0.16792361
7	0x3d8e47cf	0.0694729
8	0xbd911994	-0.07084957
9	0xbdc9ded6	-0.09856956
10	0xbde60b79	-0.11232657
11	0xbddcbdfc	-0.10778424
12	0x3d4f1328	0.05055538
13	0xbd64fcd1	-0.055905167
14	0xbdb5b2d8	-0.08872002
15	0xbdb2e63c	-0.0873532
16	0x3d9adcc4	0.07561639
17	0x3d8f6209	0.070011206
18	0x3c489af7	0.012243978
19	0xbe15c5cf	-0.14626239
20	0x3e2f4c72	0.17119005
21	0xbc455fa4	-0.012046728
22	0xbe22b995	-0.15891106
23	0xbd8493e9	-0.06473524
24	0x3e2abe5c	0.16674179
25	0xbd2b83d0	-0.041873753
26	0xbcaa68f3	-0.020801997
27	0xbdc705a6	-0.09717874
28	0xbdbb790d	-0.09153948
29	0xbe018d20	-0.12651491
30	0x3e23b34f	0.1598637
31	0x3dd46226	0.10370283
32	0x3d1940c2	0.037415273
33	0xbc67129c	-0.014103558
34	0x3d5ead95	0.05436476
35	0xbdfea05f	-0.12432932
36	0x3d8e6d19	0.069544025
37	0x3e336c76	0.17521843
38	0xbe2bcbd6	-0.16776976
39	0x3dc26fff	0.09494018
40	0xbe10a2f5	-0.14124663
41	0xbe4d5d8f	-0.20055221
42	0xbddd0e8d	-0.10793791
43	0x3dffd52e	0.12491833
44	0xbb827e7d	-0.0039823637
45	0x3e1e9070	0.15484786
46	0xbd06be48	-0.03289631
47	0x3d1dc092	0.038513727
48	0x3d1cbfa3	0.038268697
49	0xbdf2eb3c	-0.11861274
50	0xbd59327f	-0.053026672
51	0x3df2de87	0.1185885
52	0xbe50bf39	-0.20385446
53	0x3e29fac0	0.1659956
54	0xbe1484fa	-0.14503852
55	0xbc5cf25b	-0.013485516
56	0x3e25191c	0.1612286
57	0x3d47e317	0.048800554
58	0x3d0d7393	0.03453405
59	0xbe18ed8f	-0.14934371
60	0x3e0bddb3	0.1365879
61	0x3da9b04c	0.08285579
62	0xbc476308	-0.012169607
63	0xbe582133	-0.21106414
64	0x3d8cd19e	0.06875919
65	0x3b589c05	0.003305198
66	0x3e77e8b7	0.24209867
67	0xbe2e6724	-0.17031533
68	0x3df25d4b	0.118342005
69	0x3cd19fa9	0.025588827
70	0x3e1ed70f	0.15511726
71	0x3b4f0b07	0.0031592266
72	0xbd001606	-0.031271003
73	0xbdc348fd	-0.09535406
74	0xbe26cffa	-0.16290274
75	0x3de93e21	0.11388803
76	0x3e611ddf	0.21984051
77	0xbe06d6e6	-0.13167915
78	0x3c8adc3f	0.016950725
79	0xbdf5f768	-0.120100796
80	0x3e30e60f	0.1727526
81	0xbde098f3	-0.10966673
82	0xbd8e64e7	-0.06952839
83	0xbd405eb2	-0.04696531
84	0x3cbc73d0	0.023004442
85	0xbc26cae8	-0.010180213
86	0x3e34d00f	0.17657493
87	0x3d7d2563	0.061803233
88	0xbddc74bc	-0.10764453
89	0xbd94e6e9	-0.07270605
90	0x3bcdc3f2	0.006279462
91	0x3b646124	0.003484794
92	0xbd95c924	-0.07313755
93	0x3c00d8ba	0.007864172
94	0x3df78415	0.120857395
95	0xbde38d20	-0.11110902
96	0xbe348d28	-0.17631972
97	0x3e27baaf	0.16379808
98	0x3eaeab2c	0.3411497
99	0x3d559365	0.05214252
100	0x3d0d55a3	0.034505498
101	0xbda35bad	-0.0797647
102	0xbe054e9e	-0.13018271
103	0xbd0d3750	-0.03447658
104	0xbd9c1fb2	-0.07623233
105	0x3ddae30c	0.10687837
106	0x3e3853c1	0.180007
107	0x3dd7826a	0.105229214
108	0x3c98e0e5	0.018661926
109	0x3d40bba3	0.047053944
110	0x3d9289fb	0.07155224
111	0xbc025d7f	-0.0079568615
112	0xbdc416a3	-0.0957463
113	0x3ddf814a	0.10913332
114	0xbd4bc2a0	-0.049746156
115	0x3d48634b	0.04892282
116	0xbe17a25c	-0.14808029
117	0xbdaca07e	-0.08429049
118	0xbd9f719b	-0.077853404
119	0x3d980e59	0.074246116
120	0xbd9723a8	-0.07379848
121	0x3e351c3c	0.17686552
122	0xbcc36df2	-0.023856137
123	0x3d5eb967	0.054376032
124	0xbdabcd84	-0.08388808
125	0xbe0fa291	-0.14026858
126	0xbe19c98d	-0.15018292
127	0x3db69a30	0.08916128
128	0xbd748fd4	-0.059707478
129	0xb81ac49b	-3.6899564e-05
130	0xbd09ee85	-0.033674736
131	0xbd5f2777	-0.054480996
132	0xbdc83d82	-0.09777357
133	0x3e1b7a93	0.15183477
134	0xbe0b6a0b	-0.13614671
135	0x3cff252e	0.031145658
136	0x3e0c4ca0	0.13701105
137	0x3e474273	0.19458942
138	0x3d5d6810	0.05405432
139	0x3d081989	0.033227477
140	0x3e205354	0.15656787
141	0x3e3366c4	0.1751967
142	0xbd2aef75	-0.04173227
143	0x3c72a87b	0.014810677
144	0xbd2f681a	-0.04282389
145	0xbd893e15	-0.06701294
146	0x3d9253ac	0.071448654
147	0x3dcc562b	0.09977373
148	0x3d7d4a96	0.06183871
149	0x3d591971	0.05300278
150	0xbd57040b	-0.05249409
151	0xbc8ca6b7	-0.01716934
152	0xbdfea7c9	-0.12434346
153	0x3d4b781d	0.049675096
154	0x3cdca125	0.026932308
155	0xbe5414f1	-0.20711114
156	0x3dd74731	0.105116256
157	0x3d357cb7	0.04430839
158	0xbe22c21d	-0.15894361
159	0x3e0e7995	0.13913567
160	0x3c60cd1f	0.01372078
161	0xbe315110	-0.17316079
162	0xbe91152f	-0.28336474
163	0xbd7682ce	-0.06018334
164	0x3de86bad	0.113486625
165	0x3de6dbc6	0.11272387
166	0xbc730d6b	-0.014834742
167	0x3d671361	0.056414966
168	0x3d0ca0a3	0.034332883
169	0x3e249e67	0.1607605
170	0x3e4da444	0.20082194
171	0x3e20f503	0.15718465
172	0xbdf42fbf	-0.11923169
173	0xbdda3020	-0.1065371
174	0x3dd3a1f5	0.10333625
175	0xbe0704e2	-0.13185456
176	0x3b71c3c3	0.0036890365
177	0x3e0555d1	0.13021018
178	0x3cccda4a	0.025006432
179	0xbd9093f5	-0.070594706
180	0x3c3eea58	0.011652552
181	0x3d656c1d	0.056011308
182	0xbe0cbbe3	-0.13743548
183	0x3d5f08a9	0.05445162
184	0x3d6a8264	0.057253256
185	0xbd2603f5	-0.040531117
186	0x3de19997	0.11015623
187	0xbe40bb12	-0.18821362
188	0x3e42e975	0.1903437
189	0x3e386b56	0.18009695
190	0xbe29f4b9	-0.1659726
191	0xbc3ab8a9	-0.0113965655

model.2.bias f4 [6]
0	0xbe07fcd4	-0.1328004
1	0xbdca6842	-0.09883167
2	0xbe234068	-0.15942538
3	0x3e142945	0.14468868
4	0xbe22d950	-0.1590321
5	0x3d9a4dcf	0.07534372
