trained_models/example_model.pth (torch, 3167 bytes, 4 tensors)

model.0.weight f4 [32, 7]
-0.015475389 0.025390351 0.13995153 0.18018517 0.1420784 -0.04095482 -0.15508442 -0.28254405
0.13982545 0.2681744 0.01659652 -0.12667821 -0.33356568 -0.25424325 -0.31094968 -0.020496124
0.17858538 0.09910913 0.18844375 -0.11272657 -0.13424283 -0.333405 -0.15048645 0.12310268
-0.10642511 0.30771035 -0.025585502 -0.21466812 -0.21615782 0.39960155 -0.24742301 0.19124326
0.15471287 -0.1303558 -0.2404393 -0.12962936 -0.0028206506 0.37103274 -0.19710472 -0.09148947
0.1650524 -0.24611129 -0.10308477 -0.014987178 -0.033172224 -0.1151264 -0.09343611 0.004819779
-0.029131567 0.14331654 -0.25892258 0.17858474 -0.032570943 0.23547481 -0.14913957 0.23303632
0.2664107 -0.17291148 0.38980153 -0.17293939 0.041829683 -0.050708637 0.0936441 -0.1973743
-0.17231227 0.19433981 -0.06667647 0.14399078 -0.121958554 -0.078829706 0.29917762 0.16123256
-0.33907092 -0.019550359 -0.25594738 0.08672237 -0.057314463 0.15035732 -0.24866696 -0.101886615
0.011910966 -0.052554205 -0.22480655 0.09566444 0.3299884 -0.32036695 0.3062595 -0.121095955
0.3231533 -0.37501192 0.2316159 -0.13522522 -0.07182858 -0.026791696 -0.10170375 -0.019659186
0.14764562 0.19648072 0.16329268 -0.18842316 0.21211308 0.058332924 0.21580356 0.07946527
-0.10162577 0.23353714 -0.09227387 0.105480716 -0.16621697 -0.34783477 -0.07788279 0.20525011
0.009929956 -0.38830298 0.26476273 -0.02426206 0.33684808 0.10462116 -0.18638362 0.10624794
0.07869066 0.2246492 -0.10501676 -0.28852108 0.00033184388 -0.2445288 0.1143367 0.1699059
0.22123812 -0.4500359 -0.37126172 0.31200737 0.3391395 0.05668876 -0.05864693 -0.06807093
0.22541022 0.10509728 -0.2847606 -0.09260355 -0.11145033 0.01676603 0.35053313 -0.13293497
0.14635994 -0.21685454 0.22429766 0.32246944 0.073597364 -0.2786657 -0.04735959 0.101638466
-0.07369947 0.0039386405 -0.35610545 -0.12667714 -0.28337604 0.26577795 0.26964608 -0.1811745
-0.19436942 0.30074292 -0.22810611 -0.19689535 -0.1596374 -0.21189956 0.15168618 0.17488872
0.12707548 0.1764288 0.028454803 -0.17171617 -0.3891475 0.3246232 0.043912202 0.04029646
0.4359175 0.17968816 -0.008395119 -0.39028227 -0.08838935 0.17399757 -0.13885939 -0.30590343
0.22224984 -0.03557907 -0.112493955 -0.07281989 -0.25610945 -0.23521775 0.2957808 -0.15477495
-0.32150692 -0.040927667 0.24659576 0.11282442 -0.33122638 -0.3605565 -0.11077868 0.03381469
-0.30985802 -0.3462768 0.31530684 0.20287143 -0.29149666 -0.04901936 -0.20951591 -0.0670654
0.11008638 0.21832404 -0.20065284 0.24706456 0.2311196 0.112728216 0.12587924 -0.41227633
0.21621153 -0.15074404 -0.2972521 -0.11273117 -0.24803418 -0.3004865 -0.28932714 0.24062133
00000000: 7c8c 7dbc 6dff cf3c 744f 0f3e 7682 383e
00000010: 007d 113e 3ec0 27bd 73ce 1ebe 9da9 90be
00000020: 672e 0f3e 284e 893e 6df5 873c efb7 01be
00000030: 1fc9 aabe 2c2c 82be cc34 9fbe 7de7 a7bc
00000040: 16df 363e baf9 ca3d 66f7 403e 30dd e6bd
00000050: f476 09be 0fb4 aabe 1f19 1abe 421d fc3d
00000060: 68f5 d9bd 368c 9d3e b098 d1bc f6d1 5bbe
00000070: 7a58 5dbe 9398 cc3e 755c 7dbe 46d5 433e
00000080: 0d6d 1e3e fe7b 05be b835 76be 8fbd 04be
00000090: aada 38bb 01f8 bd3e d2d5 49be d55e bbbd
000000a0: 7f03 293e 9904 7cbe 1c1e d3bd c88c 75bc
000000b0: 99df 07bd 64c7 ebbd 6e5b bfbd 3def 9d3b
000000c0: 53a5 eebc 92c1 123e 8091 84be ebde 363e
000000d0: 1c69 05bd 4f20 713e 0bb8 18be 13a1 6e3e
000000e0: fc66 883e b50f 31be 1194 c73e 0617 31be
000000f0: 9a55 2b3d dcb3 4fbd 7ac8 bf3d 7d1c 4abe
00000100: a172 30be 0401 473e ac8d 88bd 5272 133e
00000110: 68c5 f9bd 7871 a1bd cf2d 993e 261a 253e
00000120: b49a adbe 1328 a0bc 890b 83be 7f9b b13d
00000130: 92c2 6abd 45f7 193e 8da2 7ebe eea9 d0bd
00000140: 3626 433c 1443 57bd b033 66be b8eb c33d
00000150: 3df4 a83e 2307 a4be 0cce 9c3e 2801 f8bd
00000160: 5974 a53e 9001 c0be b82c 6d3e 7b78 0abe
00000170: dd1a 93bd 427a dbbc 0e4a d0bd 4d0c a1bc
00000180: 6a30 173e 3e32 493e 3236 273e 00f2 40be
00000190: 2c34 593e 81ee 6e3d 9cfb 5c3e b0be a23d
000001a0: 2c21 d0bd 5c24 6f3e 15fa bcbd 4606 d83d
000001b0: c834 2abe 6617 b2be 0381 9fbd 162d 523e
000001c0: 41b1 223c a6cf c6be fb8e 873e 3ac1 c6bc
000001d0: 5a77 ac3e 9e43 d63d 59db 3ebe 8598 d93d
000001e0: 9228 a13d 710a 663e 0713 d7bd 09b9 93be
000001f0: 55fb ad39 c265 7abe 5c29 ea3d d0fb 2d3e
00000200: 3f8c 623e 1b6b e6be 0416 bebe 6ebf 9f3e
00000210: b1a3 ad3e 7932 683d c337 70bd c668 8bbd
00000220: f0d1 663e 3e3d d73d 24cc 91be eea6 bdbd
00000230: 1240 e4bd ea58 893c 1479 b33e 1b20 08be
00000240: 61df 153e 1e0f 5ebe 49ae 653e b71a a53e
00000250: 37ba 963d 45ad 8ebe 21fc 41bd d427 d03d
00000260: bfef 96bd b60f 813b 7453 b6be a7b7 01be
00000270: aa16 91be 0c14 883e 0d0f 8a3e cf85 39be
00000280: c708 47be fafa 993e a694 69be ef9e 49be
00000290: fd77 23be 33fc 58be 9f53 1b3e 0716 333e
000002a0: 1320 023e c0a9 343e 0c1a e93c 5dd6 2fbe
000002b0: 573e c7be 0335 a63e 48dd 333d e70d 253d
000002c0: 9430 df3e 2c00 383e ae8b 09bc 14d3 c7be
000002d0: 7a05 b5bd 6b2c 323e 2831 0ebe 609f 9cbe
000002e0: 7695 633e 5cbb 11bd 3b63 e6bd 9822 95bd
000002f0: c720 83be ecdc 70be 9570 973e 537d 1ebe
00000300: 8e9c a4be c5a3 27bd 9983 7c3e 7d10 e73d
00000310: 8196 a9be dd9a b8be efdf e2bd 4681 0a3d
00000320: b6a5 9ebe 314b b1be e66f a13e 87bd 4f3e
00000330: 0d3f 95be 86c8 48bd 578b 56be 9659 89bd
00000340: f874 e13d 5690 5f3e f077 4dbe 7efe 7c3e
00000350: 9eaa 6c3e 0dde e63d 7de6 003e e215 d3be
00000360: 8e66 5d3e a55c 1abe 6d31 98be 9adf e6bd
00000370: acfc 7dbe 5ed9 99be b022 94be 7065 763e

model.0.bias f4 [32]
-0.26576954 -0.021872725 -0.23178142 -0.31698075 -0.29815137 0.37511277 -0.16697663 -0.110588945
-0.028262507 -0.012499589 0.371356 0.06696294 -0.02889398 0.35290608 -0.11389237 -0.1537601
0.071980014 0.3149303 0.32241407 -0.2588559 0.26837817 0.21049699 -0.29401454 0.13172297
0.04631124 -0.03376939 0.030172968 -0.11621103 -0.35971993 0.37503397 0.29089448 0.07527598
00000000: f212 88be 6e2e b3bc 1c58 6dbe 4d4b a2be
00000010: 4ca7 98be c80e c03e ecfb 2abe 757c e2bd
00000020: c686 e7bc 13cb 4cbc 6022 be3e de23 893d
00000030: 11b3 ecbc 1bb0 b43e 6740 e9bd 4a73 1dbe
00000040: 426a 933d 8b3e a13e 7513 a53e c388 84be
00000050: dd68 893e 868c 573e 1389 96be 63e2 063e
00000060: dbb0 3d3d c651 0abd 4d2d f73c 0c00 eebd
00000070: 362d b8be 7404 c03e 1ff0 943e 4b2a 9a3d

model.2.weight f4 [5, 32]
-0.16510157 0.06802113 0.046817888 0.010145842 0.0612742 -0.071489565 0.041303404 -0.09684066
-0.20613122 -0.013337285 -0.0833083 -0.1525769 -0.04845908 0.13085184 -0.053797994 0.0027470263
-0.32701424 -0.112961076 0.11319981 -0.14700297 -0.10445238 -0.055910166 -0.09783887 -0.1522895
-0.13874885 0.15241373 0.09049023 0.14570338 -0.12091652 -0.10083909 0.12623742 -0.1417226
-0.019563619 0.023163697 -0.0018144621 -0.14385387 0.10123121 -0.08209557 -0.14780061 -0.03286582
-0.14026673 0.101547584 -0.07885319 -0.059390597 -0.056227695 -0.06591084 0.020332715 -0.040654365
-0.20886768 0.14205466 -0.14814258 -0.033786513 -0.16739169 0.011446016 0.06371449 0.17293638
0.12189001 0.017275132 0.15658115 -0.0793336 -0.071948655 0.17613302 0.089224525 -0.009432949
-0.041972764 -0.033801183 0.12642457 0.12522016 -0.21927238 0.050993618 -0.085763484 0.15992613
-0.029831195 -0.049141455 0.16516225 -0.06514398 0.13033243 0.07460984 0.08781013 -0.004815952
0.18172285 0.12139293 -0.25404233 -0.021492638 -0.09227754 -0.09350099 0.09884888 -0.06847672
0.08214999 -0.3240355 -0.103316784 -0.11000335 -0.16019166 0.08527338 -0.053784013 -0.008122435
-0.106263064 0.08812077 0.043965477 0.13177046 -0.24243687 0.13723968 0.041526068 0.12697253
0.17248714 0.17644987 0.075642005 -0.100450076 0.1252114 -0.05708952 -0.06032442 0.15729362
-0.113791324 0.14579228 0.26855862 0.04121911 0.15698743 -0.07294604 0.12270625 -0.09517578
-0.09272781 0.14875428 -0.02007977 -0.06896375 0.05924454 -0.12093328 -0.006859028 0.001915216
-0.038291957 -0.1077948 0.124894746 -0.10034722 0.0027618858 0.11867227 0.042830195 -0.027056297
0.04282143 -0.050069656 -0.12521051 -0.11620156 0.03140924 -0.019872617 -0.020652264 -0.13219139
0.048845217 -0.034827225 -0.008907664 -0.15954626 0.025746478 -0.11172249 -0.092498064 -0.16372885
0.07635459 -0.110838294 0.07850765 -0.022157758 0.04095213 -0.15577672 0.04036676 -0.13919593
00000000: 6310 29be aa4e 8b3d 1dc4 3f3d bf3a 263c
00000010: a8fa 7a3d 1f69 92bd c22d 293d 6554 c6bd
00000020: 1014 53be a184 5abc 8b9d aabd 1e3d 1cbe
00000030: 077d 46bd 06fe 053e 495b 5cbd 7407 343b
00000040: 696e a7be 2358 e7bd 4dd5 e73d f287 16be
00000050: 21eb d5bd 0f02 65bd bf5f c8bd c7f1 1bbe
00000060: 2e14 0ebe 5812 1c3e f152 b93d 4433 153e
00000070: 15a3 f7bd ba84 cebd 6244 013e bb1f 11be
00000080: e243 a0bc cbc1 bd3c 3fd3 edba 6e4e 13be
00000090: 4f52 cf3d b921 a8bd 0b59 17be 4f9e 06bd
000000a0: 15a2 0fbe 2ef8 cf3d c87d a1bd 8e43 73bd
000000b0: 034f 66bd 43fc 86bd cb90 a63c 3185 26bd
000000c0: 69e1 55be c776 113e b0b2 17be ba63 0abd
000000d0: ba68 2bbe 1288 3b3c be7c 823d 3c16 313e
000000e0: 78a1 f93d 9484 8d3c cf56 203e a879 a2bd
000000f0: d159 93bd 375c 343e 59bb b63d a88c 1abc
00000100: a2eb 2bbd 1c73 0abd 7175 013e b739 003e
00000110: f088 60be afde 503d c4a4 afbd adc3 233e
00000120: 8d60 f4bc 8d48 49bd 4b20 293e 356a 85bd
00000130: dd75 053e 0bcd 983d ccd5 b33d 22cf 9dbb
00000140: 8e15 3a3e db9c f83d d611 82be 5411 b0bc
00000150: 02fc bcbd 727d bfbd 4871 ca3d 863d 8cbd
00000160: 413e a83d fbe7 a5be c097 d3bd 7049 e1bd
00000170: 4809 24be cfa3 ae3d a04c 5cbd f613 05bc
00000180: 73a0 d9bd aa78 b43d 2515 343d d6ee 063e
00000190: 5f41 78be 8f88 0c3e 3d17 2a3d 1605 023e
000001a0: 78a0 303e 46af 343e 32ea 9a3d c5b8 cdbd
000001b0: 6b37 003e b3d6 69bd bd16 77bd 9411 213e
000001c0: 6d0b e9bd 924a 153e 8480 893e 5fd5 283d
000001d0: 50c1 203e bc64 95bd 6a4d fb3d 85eb c2bd
000001e0: 14e8 bdbd 0b53 183e 547e a4bc de3c 8dbd
000001f0: 67aa 723d deab f7bd b2c1 e0bb fc07 fb3a
00000200: 07d8 1cbd 85c3 dcbd d1c8 ff3d d882 cdbd
00000210: c100 353b 720a f33d b76e 2f3d 2ba5 ddbc
00000220: 8665 2f3d d715 4dbd 2f37 00be 15fb edbd
00000230: faa6 003d e6cb a2bc f02e a9bc 2e5d 07be
00000240: ec11 483d fea6 0ebd 73f1 11bc 1860 23be
00000250: 47ea d23c c3ce e4bd a06f bdbd 89a8 27be
00000260: cc5f 9c3d 30ff e2bd 9ec8 a03d 3084 b5bc
00000270: 6cbd 273d ef83 1fbe 9e57 253d 6189 0ebe

model.2.bias f4 [5]
0.16155759 -0.06305373 -0.112296045 -0.1189373 0.11359739
00000000: 5a6f 253e 5022 81bd 78fb e5bd 6695 f3bd
00000010: c0a5 e83d
