trained_models/example_model.pth (torch, 2911 bytes, 4 tensors)

model.0.weight f4 [32, 7]
-0.15758485 -0.31018433 -0.16408263 0.30702484 -0.071544416 -0.18921946 0.1822871 0.30310208
-0.098914765 0.18529238 -0.33064446 -0.06290972 0.30723882 0.3244106 -0.14947623 -0.20868717
0.012322419 0.23083095 0.028810425 0.07417607 0.32634458 0.20652781 0.3402862 -0.22723678
-0.13005027 -0.28379834 0.2843983 0.2536098 0.118062034 -0.298353 0.08207173 0.055802446
0.20956922 -0.02318469 -0.3597499 -0.14011905 -0.27136454 0.3268314 -0.024790654 -0.12550443
-0.20352258 0.24317372 -0.35556862 -0.20473655 -0.18890901 -0.311804 -0.17627461 0.3304749
0.26873037 -0.2931768 0.085042015 0.116474405 0.32805267 -0.04719582 0.17885129 0.26456547
-0.23873647 0.1390048 0.31256098 0.1496608 0.22510341 0.11152289 0.07514524 0.23657423
-0.35702452 0.3410559 -0.13501798 -0.19232523 -0.04343352 -0.28593692 -0.05816446 0.010511566
-0.10398809 0.25056925 -0.0066559827 0.15293701 -0.04930759 0.30920476 0.026541842 0.018255385
-0.16336553 0.08049331 0.23297639 0.36173138 -0.29234442 0.018525135 -0.34865856 -0.10524507
-0.2129452 -0.28120703 -0.0775774 -0.35096613 0.20161411 0.052953355 0.1855445 0.22085398
0.14094253 -0.17868665 0.27111456 -0.29423654 -0.32469684 0.38474002 0.29489815 0.16411728
0.27919543 -0.017221354 0.1948576 0.12714131 -0.28706318 -0.31113896 0.114494 0.33777383
0.25002795 -0.2995999 0.33208305 -0.23270331 -0.1330679 -0.1699498 0.11746021 -0.24766013
0.300186 -0.33240965 0.032533024 0.347196 -0.070442215 0.0367972 0.25940058 0.06865852
-0.072532825 0.3178088 -0.34131426 -0.14720067 -0.19098713 -0.08689181 0.16736926 0.01800191
-0.08043861 0.14336394 -0.030404834 0.11276127 0.17465064 0.022322798 0.109503485 -0.15231702
-0.3421816 0.3347372 -0.17605123 -0.29410383 0.02455469 -0.2863626 -0.20109086 -0.03203724
-0.12466828 -0.21137956 -0.047808725 -0.1012105 -0.10847799 -0.19527245 0.015842043 -0.118185535
0.1443246 0.272908 0.27703866 -0.01976964 0.1858644 -0.025088264 0.14565729 -0.3566576
0.24538666 -0.067151584 0.30139887 0.030594936 -0.3486932 0.0037449582 0.36345586 0.29845873
-0.29098862 0.30842936 -0.2544702 -0.29571283 0.04702086 0.17493102 -0.1470377 0.3282766
0.07248245 -0.35197845 -0.2441766 -0.20187585 0.06404871 -0.15249567 -0.33390132 -0.36167684
-0.19382161 -0.21567461 0.14783683 0.30671608 0.06753359 -0.3598464 0.26452035 -0.20778911
0.2662465 0.37439153 0.2765526 -0.34327543 0.3255074 0.22022893 0.08619334 -0.30955625
0.38430804 0.23576449 0.076810256 -0.14969692 -0.14610319 -0.07558066 -0.335318 -0.20160536
-0.36791143 0.32360783 -0.0029720755 0.045943454 -0.094550475 0.18776941 0.26683545 -0.00314043
00000000: ec5d 21be 7bd0 9ebe 4705 28be 5c32 9d3e
00000010: e185 92bd bfc2 41be 78a9 3a3e 3230 9b3e
00000020: d393 cabd 49bd 3d3e 3b4a a9be d0d6 80bd
00000030: 684e 9d3e 2519 a63e 4c10 19be 17b2 55be
00000040: f9e3 493c f35e 6c3e d703 ec3c a0e9 973d
00000050: a316 a73e 077c 533e fe39 ae3e c2b0 68be
00000060: e62b 05be 044e 91be a79c 913e 25d9 813e
00000070: 82ca f13d b9c1 98be 3915 a83d 1b91 643d
00000080: 5099 563e d2ed bdbc 2431 b8be 5e7b 0fbe
00000090: 4bf0 8abe 7256 a73e c515 cbbc 3c84 00be
000000a0: 3968 50be 8802 793e 170d b6be 75a6 51be
000000b0: 5d71 41be c6a4 9fbe 5581 34be 0234 a93e
000000c0: 0797 893e 451b 96be 822a ae3d 228a ee3d
000000d0: 85f6 a73e 6750 41bd cb24 373e 2075 873e
000000e0: 5577 74be 4657 0e3e fe07 a03e ae40 193e
000000f0: 8281 663e 1d66 e43d bfe5 993d 8440 723e
00000100: ebcb b6be e19e ae3e 2742 0abe e8f0 44be
00000110: 59e7 31bd 5366 92be db3d 6ebd b438 2c3c
00000120: b5f7 d4bd 9d4a 803e 6e1a dabb 859b 1c3e
00000130: c1f6 49bd 1650 9e3e 476e d93c 518c 953c
00000140: 4b49 27be add9 a43d 5d91 6e3e db34 b93e
00000150: 2bae 95be 06c2 973c 6083 b2be ba8a d7bd
00000160: 4e0e 5abe 5efa 8fbe e6e0 9ebd d5b1 b3be
00000170: ee73 4e3e 9ee5 583d 61ff 3d3e 8c27 623e
00000180: 3d53 103e a2f9 36be 87cf 8a3e 2ca6 96be
00000190: aa3e a6be a5fc c43e e4fc 963e 5c0e 283e
000001a0: b4f2 8e3e cc13 8dbc c088 473e 5531 023e
000001b0: f2f9 92be 9b4d 9fbe d57b ea3d b1f0 ac3e
000001c0: aa03 803e 2865 99be ca06 aa3e c749 6ebe
000001d0: f442 08be 5207 2ebe fb8e f03d 9e9a 7dbe
000001e0: fbb1 993e 9931 aabe 5941 053d adc3 b13e
000001f0: 0244 90bd a9b8 163d 27d0 843e d79c 8c3d
00000200: 178c 94bd d6b7 a23e bec0 aebe c6bb 16be
00000210: 2192 43be 55f4 b1bd d962 2b3e be78 933c
00000220: ffbc a4bd ffcd 123e 8f13 f9bc 61ef e63d
00000230: 9ed7 323e 4dde b63c 5d43 e03d fef8 1bbe
00000240: 6d32 afbe ad62 ab3e c646 34be c794 96be
00000250: eb26 c93c 1e9e 92be c3ea 4dbe 7b39 03bd
00000260: 1552 ffbd e273 58be 15d3 43bd 7347 cfbd
00000270: b529 debd 80f5 47be 2cc7 813c 420b f2bd
00000280: d4c9 133e 99ba 8b3e 03d8 8d3e f1f3 a1bc
00000290: 3d53 3e3e e785 cdbc 2f27 153e d39b b6be
000002a0: a446 7b3e c586 89bd f450 9a3e 3ba2 fa3c
000002b0: ea87 b2be f96d 753b e316 ba3e 95cf 983e
000002c0: 76fc 94be 74ea 9d3e eb49 82be ac67 97be
000002d0: f298 403d 1e21 333e 0d91 16be df13 a83e
000002e0: ae71 943d 8536 b4be 6e09 7abe 8bb8 4ebe
000002f0: f82b 833d d327 1cbe 1df5 aabe b52d b9be
00000300: 2c79 46be ced9 5cbe 8a62 173e e409 9d3e
00000310: 0d4f 8a3d ca3d b8be 366f 873e abc6 54be
00000320: 7651 883e 3fb0 bf3e 4d98 8d3e ccc1 afbe
00000330: e8a8 a63e b183 613e 2286 b03d 287e 9ebe
00000340: 06c4 c43e 3f6c 713e b24e 9d3d 264a 19be
00000350: 139c 15be 08ca 9abd cdae abbe a371 4ebe
00000360: e35e bcbe edaf a53e 27c7 42bb 342f 3c3d
00000370: aea3 c1bd a046 403e a89e 883e accf 4dbb

model.0.bias f4 [32]
0.12844229 -0.22386205 0.26719275 -0.080104195 0.1631154 0.2068977 0.23448044 -0.0654938
0.0824769 0.17029238 -0.21055172 0.28301367 0.21291023 0.2910237 -0.26559305 0.27719927
0.36260912 -0.1944192 -0.06811752 0.23418032 -0.014408062 0.01990802 -0.17461981 -0.12106972
0.2959784 0.35291973 0.27052325 -0.2420445 -0.27833414 0.18524541 0.36132658 0.37400416
00000000: 6086 033e 183c 65be 7dcd 883e ab0d a4bd
00000010: b907 273e fedc 533e a41b 703e 9d21 86bd
00000020: a6e9 a83d 2061 2e3e df9a 57be 2be7 903e
00000030: 2405 5a3e 0f01 953e d0fb 87be 10ed 8d3e
00000040: e7a7 b93e d415 47be 3381 8bbd f7cc 6f3e
00000050: cb0f 6cbc 2516 a33c 89cf 32be 67f3 f7bd
00000060: 7b8a 973e e5b1 b43e 0682 8a3e 83da 77be
00000070: d081 8ebe f9b0 3d3e ccff b83e 797d bf3e

model.2.weight f4 [3, 32]
0.013172344 0.02159885 0.110986225 -0.025511643 -0.009834841 -0.026069785 0.15670422 -0.07932795
0.02713348 0.16880828 0.005631944 -0.15333734 -0.085440725 -0.040288296 -0.05162286 -0.17856613
0.11376549 0.19153178 0.09251117 0.15806818 0.003588804 0.06582375 0.09986177 0.10576035
-0.23828961 0.14356822 -0.024311693 -0.14647429 0.02766269 0.097681284 0.10757576 0.14895329
0.14047001 -0.16199996 0.072970144 -0.13545583 0.03322398 0.14339061 0.1158279 0.024089053
-0.06835779 0.029371252 -0.15013814 0.18096054 0.0048131277 -0.08913651 0.13480774 0.12049591
-0.08722039 0.0033042717 0.1714649 0.09686788 -0.062000815 0.17128761 0.089887485 0.09915236
-0.0065242955 0.13467294 -0.17063305 0.0956681 0.06484075 -0.03426464 -0.026660852 -0.033275302
-0.006806442 0.084786154 0.15254974 -0.09034079 0.090311654 0.055866152 -0.045665793 -0.09038675
0.027062269 0.06025094 0.013984694 -0.09244718 -0.0330614 0.09453911 -0.068305336 0.13893986
-0.054073457 -0.014506903 -0.05258641 -0.14837646 -0.0831936 -0.11087487 0.1496329 -0.1351462
-0.12537545 -0.048683044 0.08485427 -0.1074811 0.16551462 0.22474737 0.08839924 0.060150426
00000000: d1d0 573c 12f0 b03c bf4c e33d cbfd d0bc
00000010: 5022 21bc 4d90 d5bc 1277 203e b176 a2bd
00000020: 0847 de3c 14dc 2c3e 2c8c b83b 7704 1dbe
00000030: 8cfb aebd 5705 25bd 7e72 53bd 0ada 36be
00000040: e2fd e83d e820 443e 7f76 bd3d a0dc 213e
00000050: 2432 6b3b 9ace 863d 5484 cc3d e298 d83d
00000060: 3102 74be 8c03 133e 5129 c7bc 5bfd 15be
00000070: de9c e23c 200d c83d ae50 dc3d 3687 183e
00000080: 5fd7 0f3e 51e3 25be 5f71 953d efb4 0abe
00000090: de15 083d fdd4 123e 2e37 ed3d 6856 c53c
000000a0: 2bff 8bbd fb9b f03c d0bd 19be b84d 393e
000000b0: 71b7 9d3b 348d b6bd 0a0b 0a3e 8fc6 f63d
000000c0: 9ba0 b2bd 7b8c 583b 7f94 2f3e ab62 c63d
000000d0: 91f4 7dbd 0566 2f3e ee16 b83d 6410 cb3d
000000e0: c2c9 d5bb b4e7 093e 6eba 2ebe a3ed c33d
000000f0: 3acb 843d 1459 0cbd dc67 dabc af4b 08bd
00000100: 9308 dfbb 5da4 ad3d 0036 1c3e 9804 b9bd
00000110: 51f5 b83d e8d3 643d 0e0c 3bbd b01c b9bd
00000120: b1b1 dd3c b1c9 763d 0f20 653c f254 bdbd
00000130: 646b 07bd b99d c13d abe3 8bbd 4046 0e3e
00000140: 217c 5dbd 5cae 6dbc d964 57bd 00f0 17be
00000150: 6861 aabd 5d12 e3bd 5e39 193e c463 0abe
00000160: 6c62 00be df67 47bd 13c8 ad3d 0d1f dcbd
00000170: aa7c 293e 2d24 663e a90a b53d 4b60 763d

model.2.bias f4 [3]
0.08359139 -0.10747832 0.08446184
00000000: f631 ab3d 981d dcbd 54fa ac3d
