trained_models/example_model.pth (torch, 2911 bytes, 4 tensors)

model.0.weight f4 [32, 7]
0	0x3e3738b8	0.1789273
1	0xbe8c8d37	-0.27451488
2	0x3e7afd67	0.24510728
3	0x3d2bb195	0.041917402
4	0x3e447c5d	0.19188066
5	0xbe2075c2	-0.15669921
6	0xbe7c4354	-0.24635059
7	0xbea0fdfa	-0.3144377
8	0x3e713a00	0.23557281
9	0x3e059a34	0.13047105
10	0x3ec0622e	0.37574905
11	0x3d9d8437	0.076912336
12	0x3eaa5888	0.3327067
13	0x3e003b71	0.12522675
14	0xbeac5a34	-0.3366257
15	0xbea5f989	-0.32416943
16	0x3e28ae4f	0.16472743
17	0x3eb18359	0.34670523
18	0x3c178348	0.0092476085
19	0xbeaa9b30	-0.33321524
20	0x3d817692	0.063214436
21	0xbddbe6bc	-0.107373685
22	0x3e3f5062	0.18683007
23	0xbd4548ad	-0.048165012
24	0x3c9b7c6d	0.01898023
25	0xbe879bb2	-0.26485974
26	0x3eb45d1b	0.35227284
27	0x3e214519	0.15749015
28	0x3e5b055b	0.21388762
29	0x3e5f8397	0.21827541
30	0xbe846ac9	-0.2586272
31	0xbebe4c1f	-0.3716745
32	0xbd1a1997	-0.03762206
33	0x3e8066cf	0.25078437
34	0x3cb1cb47	0.021703376
35	0xbe200b07	-0.15629207
36	0x3e82a916	0.25519627
37	0x3dca2ad1	0.09871448
38	0xbe22a09f	-0.15881585
39	0x3e66f621	0.22554828
40	0xbe02e32a	-0.12781969
41	0xbea940c1	-0.33057216
42	0xbd72e03e	-0.059295885
43	0xbdb5fdfb	-0.088863336
44	0xbe75ecf0	-0.24016166
45	0xbcdbc88c	-0.026829027
46	0x3ebb52ef	0.3658671
47	0xbe826982	-0.2547112
48	0xbe22285b	-0.15835707
49	0xbde05c06	-0.10955052
50	0xbe3547d3	-0.1770318
51	0x3c95e5ca	0.018298049
52	0xbe31fdb2	-0.17381933
53	0xbe965bb2	-0.29366833
54	0x3c87c934	0.016575433
55	0x3d965aa6	0.073415086
56	0xbceb274f	-0.028705267
57	0x3db9d0de	0.090730414
58	0xbd95b9ea	-0.07310851
59	0xbe8f6469	-0.28006294
60	0x3e218cd9	0.15776385
61	0x3e87719d	0.26453868
62	0xbe01ec95	-0.12687905
63	0x3e6fa71f	0.23403595
64	0xbca19364	-0.019723602
65	0xbe9c18eb	-0.3048776
66	0xbe72c39c	-0.23707432
67	0x3e835587	0.2565119
68	0xbb900ec0	-0.0043962896
69	0xbe9c30ea	-0.30506068
70	0x3e3cb205	0.18427284
71	0xbe3883ec	-0.18019074
72	0x3ea457a2	0.3209811
73	0xbe4d55a2	-0.20052198
74	0xbe868e92	-0.26280648
75	0xbd533683	-0.05156566
76	0x3e7254ea	0.23665205
77	0x3e9c69ee	0.30549568
78	0x3db6a136	0.08917467
79	0x3e9ea19e	0.3098268
80	0x3e283bda	0.16429082
81	0xbe2767ab	-0.1634814
82	0x3ea86286	0.32887667
83	0xbe4e1c05	-0.20127876
84	0xbe137769	-0.1440102
85	0x3d8addbc	0.06780574
86	0x3d194e2a	0.03742806
87	0x3ebaac5f	0.36459634
88	0x3eb67d62	0.35642534
89	0x3d1b669b	0.03793965
90	0xbda16470	-0.07880485
91	0x3dacd8c9	0.08439786
92	0x3ebd6606	0.369919
93	0x3e09efad	0.13470335
94	0x3ec37663	0.3817626
95	0xbe52b62e	-0.20577309
96	0xbea9775d	-0.3309888
97	0x3e3b6d0e	0.1830332
98	0xbc6db74e	-0.014509035
99	0xbe0ff6a1	-0.14058925
100	0x3da7321d	0.08163855
101	0xbc9d4f5c	-0.01920288
102	0xbea774c8	-0.32706285
103	0x3d942481	0.07233525
104	0xbec115d8	-0.37711978
105	0x3e96d4e3	0.29459295
106	0x3eaa27fc	0.3323363
107	0x3ea0f7b8	0.31438994
108	0x3eaa89d0	0.33308268
109	0xbea3da63	-0.32002553
110	0xbe894abb	-0.26814827
111	0x3e82bf4d	0.25536576
112	0xbda137c2	-0.07871963
113	0x3db7c3ba	0.08972879
114	0x3e9be286	0.3044626
115	0xbe84f4fb	-0.25968155
116	0x3e931494	0.28726637
117	0xbcbc42b9	-0.022981035
118	0xbe8f9274	-0.28041422
119	0x3d8fb716	0.07017343
120	0xbe9d1854	-0.30682623
121	0xbe419d08	-0.18907559
122	0xbdea9a9a	-0.11455269
123	0x3d32648d	0.043552924
124	0xbd0ef249	-0.03489903
125	0x3db4d94b	0.08830508
126	0xbdfd4c51	-0.12368072
127	0xbe92cce1	-0.28671935
128	0xbe1a9a44	-0.1509791
129	0xbd3931d5	-0.04521354
130	0x3e92c092	0.28662544
131	0xbe4ef302	-0.20209888
132	0x3e13527d	0.14386936
133	0x3dc328a4	0.09529236
134	0xbea2e9b6	-0.31818932
135	0x3bc94aeb	0.006142964
136	0xbd8e6798	-0.06953353
137	0xbb2454f5	-0.0025075052
138	0xbe89c0a8	-0.26904798
139	0x3db5927f	0.088658325
140	0x3e296539	0.1654252
141	0xbe00e6f2	-0.12588099
142	0xbe9ba1d3	-0.303969
143	0x3e253498	0.16133344
144	0xbe9762ee	-0.29567665
145	0x3e70d144	0.23517329
146	0xbe3a89e6	-0.18216667
147	0x3e780f0c	0.2422449
148	0x3c6a9304	0.014317278
149	0x3e62077b	0.22073166
150	0x3b8d22af	0.004307113
151	0x3e788290	0.24268556
152	0x3e226678	0.15859401
153	0x3da3d7b1	0.08000124
154	0xbead0ee0	-0.3380041
155	0x3dd27bf0	0.102775455
156	0xbe0e7a4b	-0.13913839
157	0xbe6f48ba	-0.23367587
158	0xbdc9d505	-0.098550834
159	0xbe356000	-0.17712402
160	0xbe6dd340	-0.23225117
161	0x3da67558	0.0812785
162	0xbdf4399b	-0.1192505
163	0xbccc76e2	-0.024959031
164	0x3e52f461	0.20601036
165	0x3ca42966	0.020039272
166	0xbe83b10b	-0.2572101
167	0xbe2ff968	-0.17184985
168	0x3dcc16eb	0.09965309
169	0x3de40125	0.11133031
170	0xbe933702	-0.28752905
171	0x3b37a166	0.0028019785
172	0x3dccf4ac	0.10007605
173	0x3e87124b	0.26381144
174	0xbe031648	-0.12801468
175	0xbebe77dc	-0.3720082
176	0xbe94a15c	-0.29029357
177	0xbd907ba0	-0.070548296
178	0xbeb5f292	-0.3553663
179	0x3e82fa44	0.25581563
180	0xbeb9968e	-0.36247677
181	0x3de9e0e7	0.1141985
182	0xbdc3c4ae	-0.09558998
183	0xbd05cf26	-0.032668255
184	0x3eb5c9e2	0.35505587
185	0x3dcdab82	0.10042478
186	0x3e54256d	0.20717402
187	0x3e3bcdf0	0.18340278
188	0xbe5c1308	-0.21491635
189	0x3e708502	0.23488238
190	0xbd09644e	-0.033542924
191	0xbe9dcd62	-0.30820757
192	0xbc8f0ac2	-0.017461184
193	0x3e442616	0.19155154
194	0x3e151512	0.14558819
195	0x3e0a2ba3	0.13493209
196	0x3de94418	0.11389941
197	0x3d78fd89	0.060788665
198	0x3dcd320b	0.100193106
199	0xbe8b2982	-0.27180105
200	0xbe4a9460	-0.19783163
201	0xbb8c3505	-0.0042787814
202	0x3dea0010	0.11425793
203	0xbd9aa2d2	-0.07550587
204	0x3e8e1074	0.27746928
205	0xbe45bd17	-0.19310413
206	0x3e64c2cb	0.22339933
207	0x3e83edb5	0.25767294
208	0x3bd92d53	0.0066277175
209	0x3e36180e	0.17782614
210	0xbe4821bc	-0.19544119
211	0x3e8b0929	0.27155426
212	0xbb60b876	-0.0034289635
213	0xbe2ddbea	-0.16978422
214	0xbe51f5b6	-0.20503888
215	0xbe9b0b5e	-0.3028211
216	0x3d4d4350	0.050113022
217	0x3e74c0ae	0.23901626
218	0x3d507d73	0.050900888
219	0xbe36efa1	-0.17864849
220	0xbe32c858	-0.17459238
221	0x3e3ab079	0.18231381
222	0xbebe3dac	-0.37156427
223	0xbcffc7fb	-0.031223288

model.0.bias f4 [32]
0	0x3e5942ff	0.21216963
1	0xbeb2a6ac	-0.34892786
2	0xbe4acf3e	-0.19805619
3	0x3df7626e	0.12079321
4	0xbe6b1144	-0.22955805
5	0xbe8626ba	-0.2620142
6	0x3ebc1717	0.36736366
7	0x3e6f9cae	0.23399612
8	0xbe22f1fd	-0.15912624
9	0x3d8ff549	0.07029206
10	0x3d3458bd	0.04402994
11	0x3e311dab	0.17296474
12	0x3e4e5cb0	0.20152545
13	0x3ea20a86	0.31648654
14	0x3e6c008f	0.23047088
15	0x3ebd119b	0.36927494
16	0xbccc2874	-0.024921633
17	0xbe96af30	-0.29430532
18	0x3dfadec7	0.12249523
19	0xbe3e1478	-0.18562496
20	0x3c8b03e8	0.016969636
21	0x3e89424f	0.26808402
22	0x3e0b3954	0.13596088
23	0x3e4b3bbe	0.19847009
24	0x3bcc1aa9	0.006228764
25	0xbdd92e68	-0.106045544
26	0xbe81e136	-0.25367135
27	0x3e826ac5	0.25472084
28	0x3e1f2c6c	0.1554429
29	0x3e44579f	0.1917405
30	0xbe846795	-0.25860277
31	0xbe8ed99b	-0.27900395

model.2.weight f4 [3, 32]
0	0x3e299165	0.1655937
1	0xbd815ab6	-0.0631613
2	0x3e26947d	0.16267581
3	0xbe2f2b38	-0.1710633
4	0xbe0bbefe	-0.13647076
5	0xbca48f91	-0.020087989
6	0xbe066090	-0.13122773
7	0xbd4d237e	-0.050082676
8	0xbcff03bc	-0.03112971
9	0xbe0981c1	-0.13428403
10	0xbd6f8f8c	-0.058486506
11	0x3da97cd3	0.082757615
12	0x3e04b9a3	0.1296144
13	0xbe80f46f	-0.25186488
14	0x3dd2925d	0.10281823
15	0xbb437775	-0.002982584
16	0xbd842c71	-0.06453789
17	0x3e06c9b9	0.13162889
18	0x3cb30bf1	0.02185628
19	0xbdea4c14	-0.11440292
20	0xbe02621a	-0.12732735
21	0x3d0cda0c	0.034387633
22	0xbe0bcf71	-0.13653351
23	0xbdd0ee2d	-0.102016784
24	0x3e023126	0.12714061
25	0xbe0c1292	-0.13678959
26	0xbd87f382	-0.06638242
27	0x3e22107f	0.15826605
28	0xbdaec502	-0.0853367
29	0x3ddc9853	0.10771241
30	0x3b20129b	0.0024425152
31	0x3de18b55	0.110129036
32	0x3c277990	0.010221854
33	0xbd85cf4b	-0.065336786
34	0x3c04f0f6	0.00811409
35	0xbe161a0b	-0.14658372
36	0xbe220365	-0.15821607
37	0x3da20c24	0.07912472
38	0x3da165e2	0.07880761
39	0xbdeba94d	-0.11506901
40	0xbd8604da	-0.06543894
41	0x3e23ef64	0.16009289
42	0xbe299dac	-0.16564053
43	0xbd37a4e5	-0.04483499
44	0x3d827435	0.06369821
45	0x3cd7e254	0.026353039
46	0x3d24e011	0.04025275
47	0x3dea77ad	0.114486076
48	0xbe0342bc	-0.12818426
49	0xbe345671	-0.176111
50	0xbdd9d4fb	-0.10636326
51	0x3d18d7d7	0.037315216
52	0xbe1cbe52	-0.15306976
53	0x3e1c8ffb	0.15289299
54	0x3e00f1ff	0.12592314
55	0x3d82b7c3	0.06382706
56	0xbc7d427d	-0.015457747
57	0xbd907a72	-0.070546046
58	0xbe12f996	-0.14353022
59	0x3d03fb65	0.03222217
60	0xbe0450d4	-0.12921458
61	0x3d065ba6	0.032802247
62	0xbd0b860a	-0.034063376
63	0x3cf9f245	0.03051103
64	0xbcbfa79f	-0.023395358
65	0x3d6ec385	0.05829193
66	0xba802419	-0.0009776383
67	0xbde80869	-0.11329729
68	0x3e23c2d0	0.15992284
69	0x3da5a515	0.080881275
70	0x3de11c08	0.10991675
71	0xbe0bc731	-0.13650204
72	0xbd9dcdf7	-0.077053
73	0x3dd6bc31	0.104851134
74	0x3dffe029	0.12493927
75	0x3da9e731	0.082960494
76	0xbe26237c	-0.16224474
77	0xbe258568	-0.16164172
78	0x3cf37026	0.029716562
79	0x3dd6f483	0.10495856
80	0xbd81a3a6	-0.063300416
81	0x3df08dc0	0.11745787
82	0x3e0f6e30	0.14006877
83	0xbce14598	-0.027499005
84	0xbe341eff	-0.17589949
85	0x3e139bfc	0.14414972
86	0x3c5c1f76	0.013435235
87	0x3d2c6f54	0.04209836
88	0x3e1da281	0.15394022
89	0xbe290628	-0.16506255
90	0x3d25bf37	0.04046556
91	0x3d9bf0c8	0.07614285
92	0xbdfd570f	-0.12370121
93	0xbda7e7d9	-0.08198518
94	0xbd56ae87	-0.052412536
95	0x3dddc9b1	0.10829485

model.2.bias f4 [3]
0	0x3cec7327	0.028863503
1	0xbc97b8d4	-0.01852075
2	0xbe16f749	-0.1474277
