trained_models/example_model.pth (torch, 3167 bytes, 4 tensors)

model.0.weight f4 [32, 7]
00000000: 92fd 38bd da68 32bd 53b1 8fbe f960 a83e
00000010: 74c3 b5be 8583 9f3e 20aa 8ebb afff 5c3e
00000020: 97ed 773e e724 113c e557 0f3e ff21 553e
00000030: 9b9d 58be b03d 963c cae5 c3bd 955d 6a3e
00000040: 72f7 9a3e 59cc 1ebe 0e0c 8f3d 6f27 97be
00000050: 0e16 79be 3659 56be 6a0a 1a3e 4445 be3e
00000060: 94d2 7d3e 1f1d b5be 8800 b2be 78d0 373e
00000070: c311 35be 97c7 72be 75bb 9cbe c0fc aebe
00000080: f79d b23e 1f22 b3bd 1ede 98be 6ed7 02be
00000090: 786e c3be e90e a2bd a636 8f3e 6b30 f73d
000000a0: 4b33 4cbe 025d a43e 7569 6abe b3fa 1bbd
000000b0: 75ec 843e fe59 b4be 8671 933e ce4e 98bd
000000c0: ea15 813e e3d3 aa3e 6b04 bebe 2eba 963e
000000d0: 276d 743d 3422 a9be dab9 a9be 1d08 2fbd
000000e0: 155e 353e b908 dc3d 09f1 ad3e 5589 81be
000000f0: 2eff 3cbd cffa a73e 9c32 74be db61 babe
00000100: 8a02 4f3d e930 ac3d 5a74 9d3d 988a b4be
00000110: f3cd 023e 9dac 7cbe 7d25 873e 4d3b 5d3e
00000120: c280 153d bd26 a4bd cc72 6f3e b7ac 87be
00000130: 63d6 08be 2bdf 99be 44b3 92bc c3a9 55be
00000140: d49b 633e 8b3a a53e 04ce 52bd e5a0 8b3d
00000150: 2a59 b73d fb85 90be e647 d6bd d5c8 5ebe
00000160: 0df5 d03d 7ad7 533c a885 2abe 115b 203e
00000170: 5068 743e dfbd a5be 0158 a73e e63e 9fbe
00000180: dc69 05be af99 d63d 72fa b6be adde cd3e
00000190: 6828 5cbe 85b6 05be 6c27 27be 7876 953d
000001a0: a8ed 343e b409 e9bd 4625 fdbd 0800 8f3d
000001b0: 578b 6dbc 19d2 e23d 6700 9a3e d225 78be
000001c0: 68eb ac3e d7e7 50be 184e 2b3e 5ce0 a13c
000001d0: 7776 7a3e da47 18be dce6 13bd d763 b83e
000001e0: 94c5 183e 0b05 bf3b 4859 be3d adcd babe
000001f0: 6982 b5be d0a3 d93d 5d88 ba3e 79f6 a53e
00000200: 6996 9dbd 8b50 e33d 270c 813e 7a76 13be
00000210: f73a 533c 9043 6bbe 0877 22be b654 54be
00000220: 9a98 91be 1938 a1be 691e 9bbd da22 88be
00000230: d1d0 ea3d 1ed7 52be 5a69 a5bd 7e4e 8fbc
00000240: 797a f3bd 9ebd c83e 9ca6 34bb 3fb2 7f3d
00000250: 366b c73d 9e73 1ebe df54 6d3e 6266 b6be
00000260: 7bfb 7f3d 3095 a83e 3c9e 80be b09e 33be
00000270: 9fa1 9ebe 1a04 a13d 2143 bd3d f13c c83e
00000280: 8b41 b1bd da9b 3bbd 81cf 9ebe d24f 203e
00000290: 9fb0 bebe c70c aa3e ac54 0c3d d837 bbbe
000002a0: 62ad 6b3e 4072 d1bd 5e57 4dbe 09d0 6e3d
000002b0: d18d a73e 3721 57be 4824 a1be 2690 423e
000002c0: 0527 74bd 34bb 633e 1e6e 893d 13e1 f43d
000002d0: 0bbe 9e3c bad0 a6bd 948c 1c3e b798 a33e
000002e0: 4d39 943e 7e3e 73be 6951 903e 59d3 a13e
000002f0: 8cd3 aebe c3a7 0d3e dcc2 8a3e 62fa 933e
00000300: d524 283d df7e 3ebe 5581 8a3e ee3d 9fbe
00000310: db08 033e bae9 5dbe e7c3 c03e 7548 b63e
00000320: 231f a5be 9c68 a53d d548 78be 0847 9c3e
00000330: 0b60 88be 450d 2fbe 6a2b 68be 08e5 283e
00000340: 6d7d 2a3e c6ef a33e 403b 6abd 78aa 51be
00000350: d3a9 efbd 3e69 e03d 7639 983e e9d4 573c
00000360: 7dca 273e d255 d5bc 3652 18bd 2c5d 42be
00000370: 5631 9d3e 8a21 103e 6ad0 2b3e e6bc c93d
-0.0451637 -0.043557025 -0.28064975 0.32886484 -0.3550068 0.3115503 -0.0043537766 0.2158191
0.24211727 0.008858896 0.13998373 0.2081375 -0.21153872 0.018339962 -0.09565313 0.22887261
0.3026691 -0.1550764 0.06984721 -0.29522273 -0.2432482 -0.20932469 0.15043035 0.3716222
0.2478736 -0.3537378 -0.3476603 0.17950618 -0.17682557 -0.2370895 -0.30611768 -0.34177208
0.34886143 -0.087467425 -0.29856962 -0.12777492 -0.38170218 -0.07913 0.2797138 0.12069782
-0.19941442 0.3210221 -0.22891791 -0.038080882 0.25961652 -0.3522491 0.2879755 -0.07436906
0.25212032 0.33364782 -0.37112746 0.2943892 0.05967441 -0.33033907 -0.33149606 -0.042732347
0.1771167 0.10743851 0.33972958 -0.2530009 -0.046141796 0.3280854 -0.23847431 -0.36402783
0.05053953 0.08407766 0.07688208 -0.3526199 0.12773876 -0.24675222 0.2639579 0.21604653
0.036499746 -0.08015201 0.23383635 -0.26498958 -0.13363032 -0.30053076 -0.017907746 -0.2086554
0.22227412 0.32271227 -0.051466003 0.068177976 0.089525536 -0.2822722 -0.10462932 -0.21756299
0.1020299 0.012929792 -0.16652548 0.15659739 0.23867917 -0.32371423 0.3268433 -0.31102675
-0.13028663 0.104785316 -0.3573795 0.4020895 -0.21499789 -0.13057907 -0.16323632 0.07297987
0.17668784 -0.11378804 -0.12360625 0.06982428 -0.014498553 0.11075229 0.30078432 -0.24233177
0.3377335 -0.2040094 0.16729009 0.019760303 0.24459253 -0.14871159 -0.036108837 0.36013672
0.1491912 0.0058294586 0.09294373 -0.36485043 -0.35451058 0.10626948 0.36432162 0.32414606
-0.07694704 0.11099347 0.25204584 -0.14400664 0.012892476 -0.22974992 -0.1586572 -0.2073544
-0.28436738 -0.31488112 -0.0757416 -0.2658909 0.1146561 -0.20589873 -0.08076735 -0.017493483
-0.11888594 0.39207166 -0.0027565127 0.062425848 0.09737246 -0.15473792 0.23176907 -0.35624987
0.06249569 0.3292632 -0.25120723 -0.17541003 -0.30982682 0.078621104 0.092413194 0.39108995
-0.086550795 -0.04580293 -0.31017688 0.15655449 -0.37244126 0.33212873 0.034260437 -0.36566043
0.23015359 -0.102268696 -0.20052859 0.058303867 0.32725385 -0.21008764 -0.31472993 0.19000301
-0.059607524 0.22239381 0.06710456 0.11956992 0.019377729 -0.0814528 0.15288001 0.3195245
0.28949967 -0.23754308 0.2818711 0.31606558 -0.34145772 0.13833527 0.2710179 0.28901964
0.04105075 -0.18603085 0.27051798 -0.31101936 0.12796347 -0.21671191 0.37649462 0.35602155
-0.32250318 0.08076593 -0.24246533 0.30522943 -0.26635775 -0.17094906 -0.22672811 0.16493618
0.16649409 0.3201887 -0.05718541 -0.20475185 -0.11702313 0.10957573 0.2973134 0.01317332
0.16385837 -0.026041899 -0.037187777 -0.18980855 0.30701703 0.14075294 0.16778722 0.09850483

model.0.bias f4 [32]
00000000: 5583 fa3c a19c 95be 4ec0 e9bd bc66 4bbe
00000010: 201b 823e 59d5 b03e 3a9d 623d 7d54 70bc
00000020: c2cd 17be 9968 113e d8ea 0fbd a7fd 03be
00000030: dcca 9bbe 0c3e f33d 9642 953b 9061 b13e
00000040: 392e 093e 57ae a43e 5a47 62be 8b74 33bd
00000050: 4f99 833c 77f4 c5bc 69bf 7cbe ff2e 45bd
00000060: 25b3 4dbd a540 63be edd2 863d 9228 b8be
00000070: 065c d03d 6055 083e 6fbb 593e e78b 65bd
0.030580202 -0.2922106 -0.11413632 -0.19863409 0.2541132 0.3453777 0.055325724 -0.014668581
-0.14824584 0.14200057 -0.035136074 -0.1288973 -0.30428207 0.11877069 0.004555057 0.34644747
0.13396539 0.3216426 -0.22097531 -0.043812316 0.016064314 -0.024164421 -0.24682392 -0.048140522
-0.050219674 -0.22192629 0.065832 -0.35968453 0.10173802 0.13313818 0.21262906 -0.056041624

model.2.weight f4 [5, 32]
00000000: 7bd1 003e 4b8b cd3d dcc3 f63c f434 483c
00000010: 6884 a03d add3 3dbd 690b 30be 9995 e53d
00000020: 76e3 52bd 1662 5b3d 4786 0abd 790c 983d
00000030: 0c63 9c3d 7cdf 9d3d ba6c 49be 4d4c 83bd
00000040: 134f ccbd 09d7 d93c e67d 80bd e6fa ab3c
00000050: 1dfe 6dbd 1541 40be af39 71bc c3f6 02bb
00000060: 6ea4 edbd 652e 053e 0ee6 b6bb 8e71 6f3d
00000070: 9904 c13d b644 d43b 3ebb 96bc 663a 8fbd
00000080: 4322 473d 8b38 0ebe a00c 853b c8a9 1bbe
00000090: f7b4 113d 847a eabd 772e d93d 8b08 da3d
000000a0: fdd2 fe3d 6de2 1b3e e21a 5f3d bcca a83d
000000b0: 1e3c 273e 9a67 803c 7418 0c3e 64f8 573a
000000c0: 2611 ad3d 1e85 73bd 8adf 2a3e 7fe7 f73d
000000d0: 9161 29be b626 e7bd 7332 25be 1f5c 1fbe
000000e0: 567b 003c 9bcd 413b 830f bcbb 74bd d6bd
000000f0: 69b1 083e b12a 0b3e 4672 58be da44 00be
00000100: e0d3 1fbd d305 8f3c 66e1 fb3d efe7 30bd
00000110: 789a d93d f558 9f3c 33ff eebd de57 9e3c
00000120: e1b7 f83d acf7 27be e528 d5bb 49b8 fa3c
00000130: 6870 533d ceb1 69be 9fcd 18be 405b bf3d
00000140: ce54 4ebd 739d c4bb e0e4 17be 5715 ba3c
00000150: 1bce 963c 0281 dcbd 3583 7f3d c272 133e
00000160: d341 c4bd f720 d2bd c9dc 013e 3f69 17be
00000170: 03c5 263e c2b7 863d d780 a0bd c792 da3d
00000180: 3a2e 4d3d cef7 073e e62e fb3d c8b9 0fbe
00000190: fe7b 9fbc 1aff 34be c1fe f1bc 7ae4 093e
000001a0: 219a babd 08d5 2e3e 6f84 fc3d db65 5abe
000001b0: 5f91 a13c e7ca 453e 95e7 60bd c4ad 33be
000001c0: 38d9 ff3c 4114 23be d8e0 83bd e8a1 ce3d
000001d0: af9c f23d 645f d23d 4478 abbd 288e c93c
000001e0: 932e 233e da30 acbd 829c c33d a164 ae3d
000001f0: b853 75bc 5181 c0bd f700 143b ac34 27be
00000200: 3a41 2f3e 3cbe 94bd 496b d6bc 2153 f43b
00000210: c863 aa3d 4df8 8b3b 6a20 c3bc 26ce f7bd
00000220: 6849 053e 7ad9 05be 5c81 a3bd 377b 7bbd
00000230: 2bf5 163e 4371 ccbd beb1 debd 3daf 84ba
00000240: c668 0cbe 9fa6 01be 73d4 8b3b ccff aabd
00000250: 5322 5f3d 2b9a 463e 7522 df3d 6a66 ed3a
00000260: eba0 cdbc a050 8b3d 5985 93bd 1734 773a
00000270: 3689 8b3d 92a6 09bd 4cd2 f13c f985 b0bd
0.1257991 0.10036334 0.03012269 0.012219656 0.078377545 -0.046344448 -0.17191853 0.11210174
-0.051486455 0.05356034 -0.033819463 0.07424254 0.07636079 0.07708642 -0.19670382 -0.064110376
-0.0997602 0.026591795 -0.06274013 0.020993661 -0.05810367 -0.18774827 -0.0147232255 -0.0019983507
-0.11603628 0.1300598 -0.005581624 0.058457904 0.09424705 0.0064779175 -0.01839983 -0.069935605
0.04861666 -0.13888757 0.004060343 -0.15201485 0.035572972 -0.11449149 0.106045656 0.10646161
0.124425866 0.15223093 0.054468997 0.082417935 0.16331527 0.015674401 0.13681203 0.0008238612
0.084505364 -0.059453122 0.16686836 0.12104701 -0.16541125 -0.112866804 -0.16132526 -0.15562485
0.007841906 0.0029572013 -0.005739154 -0.10485354 0.13348927 0.13590504 -0.21137342 -0.12526265
-0.03902042 0.017458832 0.12298851 -0.04318994 0.10625166 0.019451598 -0.11669769 0.019329008
0.12144447 -0.16403073 -0.006505119 0.030605452 0.05162087 -0.22821733 -0.14922188 0.093435764
-0.050373845 -0.0060002147 -0.14833403 0.022715254 0.018408826 -0.10766794 0.06238099 0.14399245
-0.095828675 -0.10260194 0.12681879 -0.14786242 0.16286092 0.06578018 -0.07837074 0.10672527
0.050092913 0.13278124 0.122648045 -0.14035714 -0.019468304 -0.17675439 -0.029540421 0.13466063
-0.09111429 0.17073452 0.12329947 -0.21327917 0.019722639 0.19315682 -0.054908354 -0.17546755
0.031231508 -0.15925695 -0.0643937 0.10089475 0.11846291 0.102721006 -0.08372548 0.024603918
0.15935735 -0.08407755 0.09551336 0.08515287 -0.014973573 -0.09399665 0.0022583583 -0.16328686
0.17114726 -0.07262847 -0.026174204 0.007456199 0.08319813 0.004271543 -0.023819167 -0.120998666
0.13016284 -0.13071242 -0.07983658 -0.061396804 0.14741962 -0.099825405 -0.108737454 -0.0010123026
-0.13711843 -0.12661217 0.0042672693 -0.08349571 0.054476094 0.19394748 0.10895244 0.0018112187
-0.025101146 0.068024874 -0.072031684 0.0009430064 0.0681328 -0.03360612 0.029519223 -0.08619303

model.2.bias f4 [5]
00000000: 8f12 51bd a8f0 c43d eeb2 053c 7b74 293e
00000010: e033 0d3e
-0.05104309 0.09616214 0.008160336 0.1654834 0.1378932
