trained_models/test.pth (torch, 2911 bytes, 4 tensors)

model.0.weight f4 [32, 7]
000000 ea 0c 0c 3e c3 37 6e be f4 7a 79 3d c7 dd c0 3e
       0.13676801 -0.23263459 0.060908273 0.37669203
000010 ee cb 9f be a5 f1 ac 3e ab d3 36 be 55 07 b6 3d
       -0.31210274 0.3377811 -0.17854182 0.08888117
000020 c5 54 d4 bd a6 cd 60 3e 1c aa 89 3e 3e 3a e2 3d
       -0.10367731 0.21953449 0.26887596 0.11046265
000030 29 16 61 be 30 88 83 be d3 38 bb 3c e8 4d 40 3e
       -0.2198111 -0.2568984 0.022854244 0.18779719
000040 ae 54 f2 bd b0 13 97 be 3b b1 5d be fc aa 6b be
       -0.118325576 -0.29507208 -0.2164964 -0.23014444
000050 1f 3a 28 bd 7c cb a5 3e 7a 11 38 bd 9d 14 bc 3d
       -0.041071054 0.3238181 -0.044938542 0.09183619
000060 aa d3 50 be 95 71 11 3e aa 4e 3c 3e 31 15 23 3e
       -0.20393243 0.14203484 0.18389383 0.15926053
000070 c4 78 93 be 1a 57 c0 3e 8a d2 9f 3d 81 19 a1 bd
       -0.28803074 0.37566453 0.07803829 -0.078661926
000080 f8 a4 af 3e 80 b8 68 be 83 e2 99 be 5a 26 f9 3d
       0.3430555 -0.22726631 -0.30055627 0.12165518
000090 10 0b 83 3e 39 1d 87 3e 16 51 be bd 62 ba 08 3d
       0.25594378 0.26389483 -0.0929281 0.033380874
0000a0 9e 02 45 39 d9 9d c7 3d 6d 05 38 be 81 6e 9b 3e
       0.00018788359 0.09746904 -0.1797082 0.30357745
0000b0 9e 00 52 be a6 57 a2 3e 72 8c 5e 3e 90 9f ac be
       -0.20508048 0.31707495 0.21733263 -0.33715487
0000c0 a2 cf 0f 3e a7 10 36 be fa 0f 17 be 58 33 da 3d
       0.1404405 -0.1777979 -0.14752188 0.10654324
0000d0 16 ba 2f 3c 62 9f 67 3e 83 22 a5 be 61 bf 47 bd
       0.010725519 0.22619393 -0.32252893 -0.048766498
0000e0 b1 6d b9 3b 47 46 2a be 18 63 0e be 7c 47 a5 3e
       0.005658828 -0.16628371 -0.13904989 0.322811
0000f0 72 01 9f be f8 41 f1 3d 21 2d ae 3d ce e4 a5 be
       -0.3105579 0.11780161 0.085047014 -0.32401127
000100 6f 2b 58 3e f7 ea 34 3e 7b 25 ba be a7 8a a3 3e
       0.21110319 0.17667757 -0.3635672 0.3194172
000110 21 bb f5 bd 75 11 90 3e 84 c2 34 be f1 ca 9a 3e
       -0.11998583 0.2813832 -0.17652327 0.30232957
000120 a9 ae e5 bd 21 61 0a 3e b8 77 1c be bf 21 40 be
       -0.112149544 0.13513614 -0.15280044 -0.18762873
000130 67 ac 58 3e cd 18 a4 be 21 9c b6 be 00 2e 8b be
       0.21159516 -0.32050171 -0.35665992 -0.27183533
000140 13 01 d0 3d d4 b6 b6 3d 8e a0 a3 3e 6c 6b 9a be
       0.10156455 0.089215904 0.3195843 -0.3016008
000150 72 1f 6a 3e 07 66 55 be b9 2a 56 be a9 d9 32 be
       0.22863558 -0.20839702 -0.20914735 -0.17465843
000160 f1 e9 b7 be 83 79 99 3e 0c 48 8b 3e 1e 94 b3 3d
       -0.3592067 0.2997552 0.27203405 0.087684855
000170 6f fd 4c 3e 9f 4b 07 be d0 28 96 be c3 57 a1 3e
       0.20018552 -0.13212441 -0.29328012 0.3151227
000180 87 13 98 be b8 35 4e 3e 35 cc 48 3d e1 1f 2b be
       -0.29702398 0.2013768 0.049022872 -0.1671138
000190 14 df 1b 3d e6 5a 0e be f4 a7 05 be 6d e3 3d 3e
       0.03805454 -0.13901863 -0.1305235 0.18543787
0001a0 5b 89 40 bd 89 72 86 be 41 de 45 3e 7d 90 c0 bd
       -0.047005992 -0.26259258 0.19323064 -0.09402559
0001b0 38 cb 76 be 3e 61 40 3d 83 f3 83 be e6 ce a5 be
       -0.2410096 0.046967737 -0.25771722 -0.32384413
0001c0 18 08 ff bd 21 47 93 3e 33 7f a6 be 78 71 ae 3e
       -0.12452716 0.28765205 -0.3251892 0.34070945
0001d0 d8 f6 3e be d0 3e 43 be 2f 60 76 be 35 58 aa be
       -0.18648851 -0.1906693 -0.24060129 -0.33270422
0001e0 f3 35 10 be 34 54 44 ba b3 67 15 be 1b 10 8b 3e
       -0.1408308 -0.0007489354 -0.1459034 0.27160725
0001f0 9c ea b3 be c3 58 a5 be 18 0a 47 3e 20 6e 56 3d
       -0.3513993 -0.32294282 0.19437444 0.052351117
000200 8a fe b2 3e 03 af 5e be 70 75 a6 3d 9e 1f 29 3e
       0.34959823 -0.21746449 0.08127868 0.16515967
000210 f2 d3 57 be e3 42 c9 bd 48 7a 86 3e f1 d9 2e 3e
       -0.21076944 -0.09827211 0.26265168 0.17075326
000220 0f eb a0 3d 7c 12 7a 3d a4 c7 19 bd 38 c4 62 bd
       0.07857334 0.061052784 -0.037543908 -0.05536291
000230 f0 c3 33 be a0 7f 5d 3e 46 b5 94 be 42 87 69 3e
       -0.17555213 0.21630716 -0.2904455 0.22805503
000240 6b 1d dc bd 75 b1 c9 be d4 1e 98 3e 65 f8 60 3e
       -0.107477985 -0.393932 0.2971102 0.21969755
000250 b8 d8 a0 be f0 94 1d 3e b1 94 ae bc e5 29 33 3e
       -0.31415343 0.15388846 -0.021311136 0.1749645
000260 f7 a5 6d bd 9f 07 88 be ea c6 a0 bc d1 09 7b 3e
       -0.058019605 -0.26568314 -0.0196261 0.24515463
000270 84 38 1f be 12 3f 3d 3e 96 08 b1 be 40 ee e9 bd
       -0.15548903 0.1848109 -0.34576863 -0.11422396
000280 12 ca 66 be c3 09 52 3d 23 5d 15 be 66 8d b5 3d
       -0.22538021 0.05127884 -0.1458631 0.0886486
000290 8b 2a 5d 3e 9a 30 f9 3b bb a8 b9 bb 72 c2 b4 3e
       0.2159826 0.0076046707 -0.005665866 0.353046
0002a0 04 ce 89 be 11 70 60 be 8d 7c d0 3c a7 3c f2 bd
       -0.2691499 -0.2191775 0.025450015 -0.11827975
0002b0 e8 e8 15 bd fd 1e 03 3e ab 8b 4a bd 6e a1 98 3e
       -0.03659907 0.1280479 -0.049449604 0.2981066
0002c0 68 26 84 be 44 0a 4a be 92 0d 5a bd 0a ce 42 3e
       -0.25810552 -0.19730479 -0.053235598 0.1902391
0002d0 37 c7 8e be a9 d1 22 3e 3d 80 ad bd 1b 0b 80 be
       -0.27886364 0.15900292 -0.08471725 -0.25008473
0002e0 62 7e 28 3e 68 1c 17 3d 1f e2 4a 3e 5b 08 65 bd
       0.16454461 0.036892325 0.19812821 -0.05591617
0002f0 54 54 31 3d a7 a4 87 3c 9a 25 85 3e 32 97 8c 3e
       0.043293312 0.016558005 0.2600525 0.27459103
000300 2f ce 41 be 8a 30 4a be 2a 3e 75 be 46 7d a6 3e
       -0.18926309 -0.19745079 -0.23949495 0.3251745
000310 76 4d 96 bd 6b 37 46 3e 29 e2 66 3e de 87 54 3d
       -0.07338993 0.19357078 0.22547211 0.051887386
000320 13 3a 8a be d9 e2 86 be c5 39 92 3e 90 f1 20 be
       -0.26997432 -0.26344946 0.285597 -0.15717149
000330 30 e3 df bd 37 ad 7d be c5 42 6e 3e 04 ed f9 3d
       -0.109320045 -0.24773107 0.23267658 0.1220341
000340 69 c2 93 3e b8 9c 0e bd 84 a8 ae 3e b9 98 9b 3e
       0.2885926 -0.034817427 0.34112942 0.30389956
000350 93 09 6f 3e 5d 62 62 3e 83 65 6b bd 88 61 b7 ba
       0.23343496 0.22107835 -0.057469856 -0.0013990859
000360 89 73 1f 3e 58 29 19 3c 94 c5 89 3e ac 5c b9 3e
       0.15571417 0.009348236 0.26908553 0.36203516
000370 ab 33 b9 3d 4b 45 d6 bd e3 f7 22 be d9 19 98 3e
       0.09043058 -0.10462435 -0.15914874 0.2970722

model.0.bias f4 [32]
000000 1b f2 01 3e 2c 64 22 bd 89 d5 86 3e aa 0d fa bd
       0.12690012 -0.039646313 0.2633479 -0.122096375
000010 b3 2d 42 3e aa f9 b2 be 08 5c a8 3b 31 fe 1b be
       0.18962745 -0.34956104 0.005137924 -0.15233685
000020 80 b7 42 be 56 68 f3 3c 25 4c 6a be d5 31 b6 3d
       -0.19015312 0.029712837 -0.2288061 0.088962235
000030 07 46 a3 be 4a a2 1e bd 23 11 bc bd 6c 2d c1 be
       -0.31889364 -0.03872899 -0.09182956 -0.37729967
000040 08 c6 8b be a7 cc af 3e 8b 4f b2 be e0 d8 3f bd
       -0.27299523 0.34335825 -0.3482631 -0.046837687
000050 45 f5 98 3e e0 c2 af be 79 9b 4d be 3a 64 59 be
       0.29874626 -0.34328365 -0.2007884 -0.2122964
000060 4f 98 50 be 8a dc 03 be a5 cb df 3d 7a 38 fa 3c
       -0.20370601 -0.12877098 0.10927514 0.030544508
000070 76 5c 85 3e b0 f7 1d 3e 36 13 0f bb 0d d9 c0 bc
       0.26047105 0.15426517 -0.002183152 -0.023540998

model.2.weight f4 [3, 32]
000000 0a b5 aa bd 8c d2 b4 bd 93 17 07 3d 43 30 8c bd
       -0.08335312 -0.08829221 0.032981467 -0.06845143
000010 ab cf 39 3e 77 c1 cc 3d d2 95 9b 3c 14 99 15 3d
       0.18145625 0.09997838 0.018992338 0.03652294
000020 de 4e 17 bd 4c cc 92 bd 21 12 22 be 72 a3 f1 bd
       -0.036940448 -0.07167873 -0.15827228 -0.11798753
000030 ed 84 a2 bb 1e a6 35 3d 16 ae f7 3c 75 19 cc 3d
       -0.0049596936 0.044347875 0.030234378 0.09965793
000040 6c 38 09 3d 6e ff 1e 3e ec 77 e6 3d 9b 26 29 3e
       0.033501074 0.15527126 0.11253342 0.16518633
000050 40 15 85 bd 40 b8 a5 bd 24 20 cc bd 0a f0 a9 bd
       -0.06498194 -0.080917835 -0.09967068 -0.08297737
000060 e8 93 f8 bd 40 82 b1 bd 1b f3 97 bd 71 d0 b3 bc
       -0.12137586 -0.08667421 -0.074194156 -0.021949979
000070 59 67 f6 bd 05 a5 2c 3e 93 df 93 bd 57 9b 22 3d
       -0.12031431 0.16859825 -0.07220378 0.039698925
000080 db 1d 26 3e d2 f8 d3 bd 08 66 8d bc a2 d5 07 3e
       0.16222326 -0.10350193 -0.017260566 0.13265088
000090 68 c7 e7 bc 74 e6 d4 bd 0d 96 d1 3d c2 b5 9e bd
       -0.028293326 -0.10395518 0.10233698 -0.07749511
0000a0 e0 27 7a 3d 4f 48 2c 3d 9b 76 8e bd d9 7b 34 3e
       0.061073184 0.042061146 -0.06956216 0.17625369
0000b0 4d 82 75 bd fd 55 d3 bd 6e 8a 8a 3d 47 91 f2 3c
       -0.059938718 -0.10319135 0.067646846 0.02961029
0000c0 05 5c a9 bd 83 9d f1 3d 7a 4b c1 bb 22 1e 06 3e
       -0.082695045 0.11797621 -0.00589889 0.13097432
0000d0 38 2e b5 3d 98 9c d0 3b 0c d7 2d bd 6a e9 bc bc
       0.08846706 0.0063663237 -0.042441413 -0.02306052
0000e0 08 29 be bc c4 58 5f 3d 0b 3d 1c be 9b a2 01 bd
       -0.023212925 0.054528013 -0.15257661 -0.031649213
0000f0 66 d2 c7 3d 47 be 9f 3d ae 8a fe bd 05 a8 c0 3c
       0.09756927 0.077999644 -0.12428795 0.023517618
000100 d4 89 ea bd ac 17 da bd 05 6c 48 bb 16 4c 98 bd
       -0.1145207 -0.10649046 -0.0030581963 -0.07436387
000110 5a bc 0c 3e 60 3d c6 bb 66 b9 e8 3d de 6a 94 3d
       0.13743725 -0.006049797 0.11363487 0.07246946
000120 52 88 95 3d ac 65 08 be eb f1 e2 3d 1c c8 6c 3d
       0.07301392 -0.13320035 0.110812984 0.057808027
000130 52 09 20 3e 16 17 93 3d 88 cc bd bd 81 13 1f 3e
       0.15628555 0.07182138 -0.09267527 0.15534784
000140 7f 69 f7 bc 8f f0 33 be c2 90 a8 bd df 2c 0c 3e
       -0.030201672 -0.17572235 -0.08230735 0.13688992
000150 30 d1 41 3e 0f 65 6a bd e3 9b 9f bd 5e fa 08 be
       0.18927455 -0.057225283 -0.07793405 -0.13376758
000160 2f d7 1a be 27 d3 1f be 21 ec 23 bb dc ba 00 bd
       -0.15121149 -0.15607892 -0.002501257 -0.031428203
000170 b8 a9 56 bd 68 62 29 be 37 d8 45 3d 52 f9 a5 3d
       -0.05240795 -0.16541445 0.0483019 0.08104195

model.2.bias f4 [3]
000000 16 1b 69 3c d9 72 0f 3d 29 d3 19 3e
       0.014227649 0.035021637 0.15021957
