trained_models/test.pth (torch, 2911 bytes, 4 tensors)

model.0.weight f4 [32, 7]
-0.16744342 -0.36113244 -0.12619899 -0.15793903 0.3408765 -0.30737638 -0.054236088 -0.21820657
-0.15488026 0.019513367 -0.16235691 0.1902208 -0.24558859 -0.03681417 0.20321114 -0.26762128
0.10322176 0.2941561 0.025728345 0.09142016 -0.11196291 -0.32686406 -0.17305008 0.07525994
-0.11708732 0.36402994 -0.07437494 -0.17524187 0.20884527 0.17449313 -0.12676159 0.20473953
0.04161554 -0.33089826 -0.14024918 0.011564478 0.0695798 -0.09352834 0.20081651 -0.34449866
-0.0025510301 -0.1675946 0.37158194 -0.3741907 -0.21734214 0.24365664 0.06894346 0.019344684
0.20549552 0.07945766 -0.2706783 0.05602336 -0.24929528 0.122840635 -0.098961346 -0.28628963
0.32739043 -0.3295336 0.09972168 -0.14714755 -0.25849286 -0.27736738 0.049196973 -0.32081386
0.12610221 -0.2003307 0.017211907 -0.3078099 0.038276896 0.30229306 -0.30009082 0.3411395
-0.13178703 -0.20003472 -0.14528802 -0.26261085 -0.23995373 -0.050772876 0.086504966 0.09095053
-0.073894784 0.36103848 -0.19380213 -0.19370101 -0.19485067 0.122098275 -0.12364215 -0.18475522
0.2175611 0.057319373 -0.21150649 -0.256406 -0.06479756 -0.2570968 -0.33722684 -0.3445471
0.33506685 -0.29848722 0.35974103 -0.13795452 -0.29283774 -0.12038598 0.2198867 -0.22394547
-0.083240144 0.31774765 -0.3276127 -0.34845403 0.03305557 -0.32028824 0.14553718 0.0515393
0.3043825 0.07043845 0.31916478 -0.28759876 0.0045309193 0.14580815 -0.26036373 0.12465593
-0.24567036 0.04051654 -0.13645254 -0.0059173647 -0.06658942 0.18926163 -0.08379997 0.07376113
0.29976135 -0.019470345 0.15841056 -0.1141965 0.17014699 0.024973828 0.2687384 0.2302949
0.2187908 -0.2767268 -0.05124876 -0.116845526 -0.0168675 -0.19860646 -0.014859566 0.1348749
0.1415589 -0.11655691 0.28537 -0.30138102 0.36420462 -0.008001472 0.1689195 0.1292043
-0.42282394 -0.031267088 0.07208776 -0.13451397 0.15593621 -0.32615784 -0.022954585 0.099546544
-0.06053585 0.25888443 0.1938186 0.019783122 -0.3437111 -0.3364073 -0.11932822 -0.14814349
0.055522855 0.26993084 -0.06374551 0.05737 -0.16874225 -0.079213195 -0.07586902 0.11684869
0.20710562 0.063446224 0.290051 0.094714634 0.08726273 -0.040560048 0.027417688 0.32713985
0.20909211 0.26991788 -0.15092404 -0.16604269 -0.115805045 0.33299908 -0.36635506 -0.074881025
0.13931079 -0.18482724 0.32881567 0.11702836 0.3203072 -0.07571152 -0.31852773 0.07065733
0.2787036 0.14250918 0.11341901 0.34664485 -0.09365513 -0.08908686 0.316933 -0.36022347
-0.14884719 0.083737485 0.3080876 0.25609505 0.24754395 0.1298306 0.14195438 -0.21379171
-0.38777617 -0.3775708 -0.07174353 0.30026102 0.09378088 0.25319645 0.028519811 -0.17675331
00000000: 4a76 2bbe 5ae6 b8be 4f3a 01be c5ba 21be
00000010: 5d87 ae3e 7060 9dbe a926 5ebd 8b71 5fbe
00000020: ee98 1ebe 7fda 9f3c e440 26be 3ec9 423e
00000030: 937b 7bbe 75ca 16bd 9516 503e a805 89be
00000040: ee65 d33d a19b 963e 40c4 d23c 7e3a bb3d
00000050: cf4c e5bd ba5a a7be 0a34 31be e221 9a3d
00000060: 7acb efbd 2262 ba3e e351 98bd 9b72 33be
00000070: 89db 553e 54ae 323e cacd 01be 3da7 513e
00000080: 0e75 2a3d 7f6b a9be 7b9d 0fbe f078 3d3c
00000090: db7f 8e3d c98b bfbd d8a2 4d3e 2162 b0be
000000a0: 2f2f 27bb eb9d 2bbe fd3f be3e ec95 bfbe
000000b0: f08e 5ebe 2081 793e 3b32 8d3d be78 9e3c
000000c0: 6b6d 523e b3ba a23d 5996 8abe c078 653d
000000d0: 4347 7fbe df93 fb3d 3fac cabd 8e94 92be
000000e0: b89f a73e a1b8 a8be e13a cc3d d9ad 16be
000000f0: 2d59 84be 1903 8ebe c482 493d b741 a4be
00000100: f020 013e 7e23 4dbe fcff 8c3c 4299 9dbe
00000110: 3cc8 1c3d 28c6 9a3e 81a5 99be d6a9 ae3e
00000120: 2ef3 06be e7d5 4cbe 62c6 14be ee74 86be
00000130: 6eb6 75be 38f7 4fbd 8429 b13d 4544 ba3d
00000140: 2656 97bd 09da b83e 1174 46be 8f59 46be
00000150: ef86 47be a90e fa3d 1838 fdbd 7930 3dbe
00000160: 56c8 5e3e b8c7 6a3d 2895 58be a647 83be
00000170: 95b4 84bd 31a2 83be ffa8 acbe 7a68 b0be
00000180: e28d ab3e 51d3 98be fa2f b83e f343 0dbe
00000190: d4ee 95be ed8c f6bd fb29 613e f651 65be
000001a0: cf79 aabd d2af a23e dabc a7be 9168 b2be
000001b0: 4765 073d d2fc a3be b307 153e df1a 533d
000001c0: 06d8 9b3e 0942 903d 9169 a33e 2540 93be
000001d0: 1b78 943b bb4e 153e 654e 85be 9c4b ff3d
000001e0: 0391 7bbe acf4 253d 37ba 0bbe 74e6 c1bb
000001f0: 0960 88bd cdcd 413e 529f abbd 1310 973d
00000200: 527a 993e 4680 9fbc 6136 223e dbdf e9bd
00000210: 033b 2e3e ea95 cc3c 1498 893e 6dd2 6b3e
00000220: b20a 603e 23af 8dbe 38ea 51bd b54c efbd
00000230: b62d 8abc 7e5f 4bbe 8a75 73bc a51c 0a3e
00000240: d1f4 103e 64b5 eebd 041c 923e 9d4e 9abe
00000250: 0779 ba3e 9b18 03bc 3cf9 2c3e 224e 043e
00000260: 617c d8be eb11 00bd bfa2 933d 08be 09be
00000270: bead 1f3e 29fe a6be 410b bcbc 0fdf cb3d
00000280: 70f4 77bd 808c 843e 6278 463e 3710 a23c
00000290: e7fa afbe 943d acbe 5b62 f4bd edb2 17be
000002a0: ef6b 633d 6034 8a3e 028d 82bd cefc 6a3d
000002b0: c5ca 2cbe 873a a2bd 3761 9bbd 5e4e ef3d
000002c0: 7f13 543e 18f0 813d 9181 943e bff9 c13d
000002d0: cdb6 b23d 4b22 26bd 0f9b e03c e07e a73e
000002e0: 3e1c 563e ad32 8a3e d58b 1abe 1807 2abe
000002f0: 322b edbd db7e aa3e e492 bbbe 395b 99bd
00000300: 7da7 0e3e 5a43 3dbe 875a a83e 91ac ef3d
00000310: 4eff a33e a40e 9bbd 1116 a3be cab4 903d
00000320: 3db2 8e3e eded 113e 3a48 e83d 6f7b b13e
00000330: 43ce bfbd 2c73 b6bd 0b45 a23e 366f b8be
00000340: 666b 18be 8f7e ab3d a8bd 9d3e e41e 833e
00000350: 297c 7d3e 50f2 043e 7d5c 113e 37ec 5abe
00000360: 998a c6be f650 c1be 46ee 92bd d0bb 993e
00000370: 3110 c03d f7a2 813e 61a2 e93c d2fe 34be

model.0.bias f4 [32]
0.34075838 0.28506324 0.35117313 -0.21485704 -0.048290275 0.24420412 0.14468446 0.3554083
-0.17267728 -0.050121 -0.06408876 0.18867278 0.36788017 0.25708282 -0.27668107 0.29977196
-0.36585692 -0.08555404 -0.11595327 0.20812073 0.17159049 -0.12784551 0.2923929 -0.24231948
0.073963635 -0.20586573 -0.06359882 0.3525283 -0.12669334 0.16525777 0.1627019 -0.03476606
00000000: e277 ae3e cff3 913e f7cc b33e 7c03 5cbe
00000010: 06cc 45bd a510 7a3e 2a28 143e 14f8 b53e
00000020: 50d2 30be ad4b 4dbd f840 83bd 7033 413e
00000030: ca5a bc3e 5ca0 833e 24a9 8dbe b67b 993e
00000040: 9951 bbbe f536 afbd e878 edbd 9a1d 553e
00000050: 6bb5 2f3e efe9 02be 86b4 953e 9922 78be
00000060: 3f7a 973d 77ce 52be 1940 82bd 977e b43e
00000070: e6bb 01be 5539 293e 549b 263e db66 0ebd

model.2.weight f4 [3, 32]
0.047232095 -0.064855926 -0.001121346 -0.118264094 0.11770823 0.16066858 0.07326155 0.16953447
-0.024204597 -0.0013562645 0.06951206 0.12649165 0.0104629975 -0.1154788 -0.06433177 -0.14263125
0.08267275 -0.042925533 -0.003654212 0.028466947 -0.11448589 0.019784756 0.029882327 0.13781829
-0.048727542 0.05506713 -0.078215316 -0.16709363 0.11801235 0.12504129 0.07187644 0.111722484
-0.056949053 -6.935264e-05 -0.043087535 0.036391318 0.030071344 -0.007916168 -0.097878285 0.043089632
0.15781872 -0.002242128 0.10180215 -0.012454576 -0.14396977 0.07426578 0.058031153 -0.011658451
0.16166344 0.09667947 0.030084236 0.055259373 0.10824492 -0.056020323 0.13231719 0.12792905
-0.1605938 0.15039246 0.031828016 0.019967427 -0.032377247 -0.14185302 -0.14295854 -0.12544397
0.048314575 -0.12251414 -0.01694398 -0.13007107 -0.10275183 -0.15290482 0.13953818 0.12911521
-0.17237645 0.060285207 -0.08695774 -0.14312364 0.1742681 -0.11719806 -0.0893121 -0.13992003
0.14356628 0.010670886 0.10652544 0.058943123 0.08640828 0.22848803 0.067247845 -0.17604409
0.022401705 0.03786641 0.18099126 -0.10196565 -0.15430418 -0.079147585 -0.040359266 -0.09247734
00000000: 7176 413d 2fd3 84bd 21fa 92ba 7234 f2bd
00000010: 0311 f13d 4e86 243e 270a 963d 729a 2d3e
00000020: b848 c6bc afc4 b1ba 575c 8e3d 0787 013e
00000030: fe6c 2b3c 2680 ecbd 60c0 83bd ed0d 12be
00000040: 5550 a93d afd2 2fbd 817b 6fbb 8433 e93c
00000050: 9477 eabd a413 a23c c8cb f43c 3d20 0d3e
00000060: 8896 47bd 128e 613d 5a2f a0bd 981a 2bbe
00000070: 75b0 f13d d30a 003e f433 933d c2ce e43d
00000080: 6943 69bd 6a71 91b8 8e7c 30bd 100f 153d
00000090: 2e58 f63c d1b2 01bc 6974 c8bd c17e 303d
000000a0: 3b9b 213e aaf0 12bb a57d d03d 470e 4cbc
000000b0: d06c 13be a818 983d 13b2 6d3d 1603 3fbc
000000c0: 1a8b 253e e3ff c53d 3773 f63c a757 623d
000000d0: 83af dd3d 9175 65bd 287e 073e d5ff 023e
000000e0: b372 24be 7b00 1a3e 185e 023d bb92 a33c
000000f0: 019e 04bd eb41 11be b963 12be 6274 00be
00000100: 81e5 453d b2e8 fabd 1ace 8abc 5a31 05be
00000110: 8d6f d2bd 1593 1cbe 19e3 0e3e c736 043e
00000120: 7483 30be 9fed 763d e616 b2bd 018f 12be
00000130: 5673 323e 8905 f0bd 43e9 b6bd 3247 0fbe
00000140: 0a03 133e f1d4 2e3c 032a da3d 586e 713d
00000150: d3f6 b03d c4f8 693e 3db9 893d e744 34be
00000160: c883 b73c cf19 1b3d c655 393e 5ed3 d0bd
00000170: ea01 1ebe 2118 a2bd c24f 25bd c264 bdbd

model.2.bias f4 [3]
0.044551477 -0.13089769 0.14820868
00000000: 9c7b 363d 0b0a 06be 04c4 173e
