trained_models/virgo.pth (torch, 3679 bytes, 4 tensors)

model.0.weight f4 [32, 7]
0	0x3ea89a77	0.32930347
1	0xbd91c033	-0.07116737
2	0x3e7b8291	0.24561526
3	0xbd6bb67b	-0.057547074
4	0x3dcedf47	0.101011805
5	0x3eaf86be	0.34282488
6	0xbddec1ac	-0.10876784
7	0xbebc63fe	-0.36795038
8	0xbe06d53d	-0.13167281
9	0xbcfcf147	-0.030876769
10	0x3d7cc7f8	0.061714143
11	0x3d23298e	0.03983455
12	0x3eae87c6	0.34087962
13	0x3db36a37	0.08760493
14	0x3e9e37f6	0.3090207
15	0x3cd15b4c	0.025556229
16	0xbe29085b	-0.16507094
17	0xbe3542c2	-0.17701247
18	0xbe9b8e34	-0.3038193
19	0x3eb7b55d	0.35880557
20	0x3e5f2fce	0.2179558
21	0xbed2f778	-0.4120443
22	0x3e41f2da	0.18940297
23	0x3d077497	0.033070173
24	0x3e83e622	0.25761515
25	0xbdf9077e	-0.12159632
26	0xbdd5f099	-0.10446281
27	0x3e90f2cd	0.28310242
28	0xbe12d7e6	-0.14340171
29	0x3e519a42	0.20469001
30	0x3d856dff	0.06515121
31	0xbe8b22e3	-0.27175054
32	0xbe36e4d2	-0.17860726
33	0xbe00ce75	-0.12578757
34	0x3dbeec0d	0.09322367
35	0xbea5efcb	-0.3240951
36	0x3ea644ca	0.32474357
37	0xbe91f63b	-0.2850817
38	0xbe6ada3e	-0.22934815
39	0xbd6cc89e	-0.05780851
40	0xbe8fb871	-0.28070405
41	0x3d409b67	0.047023203
42	0xbd846ad6	-0.0646569
43	0x3e014de0	0.12627363
44	0x3e3ea7df	0.18618725
45	0xbe4c47d0	-0.1994927
46	0x3ca65c5d	0.020307714
47	0x3e8feb8a	0.2810939
48	0x3e8fef61	0.2811232
49	0x3e089bb8	0.13340652
50	0xbe99bf80	-0.30028915
51	0x3dbf62db	0.09345027
52	0x3ea1e2f9	0.3161848
53	0xbe4535e3	-0.19258837
54	0x3db11328	0.08646232
55	0x3e986b06	0.29769152
56	0x3d468649	0.048467908
57	0xbe92ca46	-0.28669947
58	0x3c4d9518	0.012547754
59	0x3e36018f	0.17774032
60	0xbe49b8ca	-0.19699398
61	0xbe82478a	-0.25445205
62	0x3e752ee2	0.23943666
63	0x3d3d2ff1	0.0461883
64	0xbc9dabc5	-0.019246945
65	0xbea10274	-0.31447184
66	0x3e9da99f	0.30793473
67	0xbd69845f	-0.057011005
68	0xbe53fae3	-0.20701174
69	0x3a68d682	0.0008882062
70	0xbeb2aaa3	-0.3489581
71	0xbe723965	-0.23654707
72	0x3ea29e5f	0.31761453
73	0xbd9ed295	-0.07755009
74	0xbe9af206	-0.30262774
75	0xbd826db6	-0.06368582
76	0x3e96dbb5	0.29464498
77	0x3dfc73d6	0.123267815
78	0xbe9e9a70	-0.309772
79	0xbe832eef	-0.25621745
80	0x3cbdd79b	0.023174098
81	0x3e81a720	0.2532282
82	0xbd911bad	-0.07085357
83	0x3e77ff60	0.24218512
84	0xbe804521	-0.2505274
85	0xbe11d24e	-0.14240381
86	0xbe9a21dd	-0.3010396
87	0x3d15305d	0.036423076
88	0x3e7b2231	0.24524762
89	0x3e63ba7f	0.22239111
90	0x3e31d9a7	0.17368184
91	0x3e891e05	0.26780716
92	0x3dd76371	0.10517014
93	0xbeb06bee	-0.34457344
94	0xbea399e8	-0.3195336
95	0xbe301a3e	-0.1719751
96	0xbe740d65	-0.23833235
97	0xbe45e230	-0.19324565
98	0xbd03d087	-0.03218129
99	0xbe429f3e	-0.19006059
100	0xbe81c07b	-0.25342163
101	0xbe6a7fd0	-0.22900319
102	0x3e8d8687	0.276417
103	0xbe980077	-0.29687855
104	0x3e11362d	0.14180823
105	0xbca46656	-0.020068329
106	0xbdea48f5	-0.11439697
107	0xbe57d87b	-0.21078674
108	0x3e29ef61	0.16595222
109	0x3e7baaa1	0.24576809
110	0x3e430c62	0.19047692
111	0xbe53d142	-0.20685294
112	0x3e3b0088	0.18261921
113	0x3e996ae0	0.29964352
114	0x3eba89a4	0.36433136
115	0x3d9b1a3f	0.075733654
116	0x3e25f94b	0.16208379
117	0xbe8b34a2	-0.27188593
118	0xbe72b206	-0.23700723
119	0x3d131b1b	0.03591452
120	0x3e3ee39e	0.18641517
121	0x3eb96996	0.36213368
122	0xbebc799c	-0.3681153
123	0xbe5acf69	-0.21368183
124	0x3c5a2a7d	0.013315794
125	0xbd9a157b	-0.07523628
126	0xbe7058a3	-0.23471312
127	0x3e634d84	0.22197539
128	0x3e545219	0.20734443
129	0xbde368f0	-0.111039996
130	0x3e6e53e7	0.23274194
131	0x3c0029dd	0.007822481
132	0x3e8d2f4c	0.27575147
133	0xbe7a4f3f	-0.24444292
134	0x3d9072c0	0.07053137
135	0xbe50803f	-0.20361422
136	0xbebed9b4	-0.3727547
137	0x3e43de9b	0.19127886
138	0x3e9df6cb	0.3085235
139	0x3d81c4af	0.063363425
140	0xbea24cde	-0.3169927
141	0x3e2575d7	0.16158234
142	0xbdcd03d0	-0.10010493
143	0x3eb61e03	0.35569772
144	0xbe0c3390	-0.13691545
145	0x3da2d331	0.07950438
146	0xbe4c25bf	-0.19936274
147	0xbdea7b2e	-0.11449276
148	0x3eb2e799	0.3494232
149	0xbd3c6751	-0.045996968
150	0xbe7e93a9	-0.24861015
151	0xbdcca49b	-0.099923335
152	0xbe65fb04	-0.22459036
153	0x3e9ba020	0.30395603
154	0x3e1d7c07	0.15379344
155	0xbda9a736	-0.08283846
156	0xbcb85526	-0.02250154
157	0xbe4e9a66	-0.20176086
158	0xbe916528	-0.2839749
159	0xbe4c21e3	-0.19934802
160	0xbd3e2305	-0.046420116
161	0x3e9594d1	0.292151
162	0x3e2954da	0.16536275
163	0xbea800d9	-0.32813147
164	0x3e0b0472	0.13575915
165	0x3e82606b	0.25464186
166	0xbe5b1b0c	-0.21397036
167	0x3dbf5c7b	0.09343811
168	0xbe4627e3	-0.19351153
169	0xbe7a8539	-0.24464883
170	0xbcb6026c	-0.022217952
171	0xbe085d36	-0.13316807
172	0xbe3eb839	-0.18624963
173	0xbd49a4a4	-0.04922928
174	0x3ebaf0ba	0.36511785
175	0xbd5b707b	-0.053574067
176	0xbe1ddeb3	-0.15416984
177	0xbe46ae89	-0.19402517
178	0x3e98f6e7	0.29875872
179	0x3d80e70a	0.06294067
180	0x3e0409e2	0.12894395
181	0x3e14f8cd	0.14548035
182	0x3d1df6ef	0.038565572
183	0x3dbeea7f	0.0932207
184	0x3ea00420	0.31253147
185	0xbd96917f	-0.0735197
186	0x3eada3b9	0.33913973
187	0xbe34ab22	-0.17643407
188	0xbdd069e7	-0.10176449
189	0x3df4349f	0.11924099
190	0x3b002c9b	0.0019557837
191	0x3e4d85e5	0.20070608
192	0xbd9e475a	-0.07728453
193	0x3ddcec50	0.107872605
194	0xbebd9334	-0.3702637
195	0xbe8b32f6	-0.27187318
196	0x3e32003b	0.173829
197	0x3e970d18	0.29502177
198	0xbd7f9649	-0.062399182
199	0xbdd09ecd	-0.10186539
200	0xbeaf972d	-0.34295025
201	0x3ec36940	0.38166237
202	0xbd4817fc	-0.048851
203	0x3e9f2cd5	0.31088892
204	0xbe13b90c	-0.14426059
205	0xbe1130df	-0.14178799
206	0xbe8db48a	-0.27676803
207	0xbe683dab	-0.22679774
208	0xbe67490e	-0.22586462
209	0x3e98065c	0.29692352
210	0x3e1aaafe	0.15104291
211	0xbe527c4b	-0.20555227
212	0x3d369726	0.04457774
213	0x3de0deae	0.10979973
214	0xbe700e9a	-0.2344307
215	0xbeac1b5d	-0.33614627
216	0x3eb4391e	0.35199827
217	0x3e44f08b	0.19232385
218	0x3e1b4a38	0.15165031
219	0xbd926ac2	-0.07149269
220	0x3e9f0367	0.31057283
221	0x3ea8cf8e	0.32970852
222	0xbe6c0134	-0.23047334
223	0xbe90557a	-0.28190213

model.0.bias f4 [32]
0	0x3eac25f0	0.33622694
1	0xbebd8158	-0.37012744
2	0x3cd476da	0.02593558
3	0x3c99851e	0.018740233
4	0x3c8d666a	0.017260749
5	0xbc364932	-0.01112585
6	0xbe8d2704	-0.2756883
7	0xbe7fd37d	-0.2498302
8	0xbdd51674	-0.10404673
9	0x3eaba7ac	0.3352636
10	0xbd708b33	-0.0587265
11	0xbe5118a6	-0.20419559
12	0xbe75f6f3	-0.24019985
13	0xbd1863ef	-0.03720468
14	0x3c5357ea	0.012899378
15	0x3e5a85a3	0.21340041
16	0x3e8c1e97	0.27367088
17	0xbe22cd5d	-0.15898652
18	0x3e9050f7	0.2818677
19	0x3e9e9a4b	0.3097709
20	0xbe034961	-0.1282096
21	0x3dd54e98	0.10415381
22	0x3eb61758	0.35564685
23	0xbe30ee56	-0.17278418
24	0xbdafb68b	-0.08579739
25	0x3e62d006	0.22149667
26	0xbe76e7d2	-0.2411187
27	0xbbe15f24	-0.0068777967
28	0x3e1f82d8	0.15577257
29	0xbd3f9843	-0.046776067
30	0x3e047852	0.12936524
31	0xbe845d88	-0.2585261

model.2.weight f4 [9, 32]
0	0x3e71258d	0.2354948
1	0xbdce37d8	-0.10069245
2	0x3cfbd199	0.030739592
3	0xbe3be880	-0.1835041
4	0xbd9e7d3c	-0.0773873
5	0xbccb793e	-0.024838086
6	0xbe1837d1	-0.14865042
7	0x3db7c3a5	0.08972863
8	0x3dfc00f1	0.12304867
9	0xbc83888f	-0.016056327
10	0x3d9431e7	0.072360806
11	0xbd446c44	-0.047954813
12	0xbc708797	-0.014680765
13	0xbde77de6	-0.1130331
14	0x3d14fbf2	0.036373086
15	0xbd0c34a4	-0.03422989
16	0x3e090e41	0.13384344
17	0x3e0ec3e0	0.13941908
18	0x3d840487	0.06446176
19	0x3dbfea51	0.09370864
20	0xbc828f01	-0.01593733
21	0xbdfeb7b1	-0.1243738
22	0x3dafaa1d	0.085773684
23	0xbd86ab6c	-0.06575665
24	0xbda825d5	-0.08210341
25	0x3d971641	0.073772915
26	0xbdef88dc	-0.11696026
27	0xbd8b9fd4	-0.06817594
28	0x3e47d060	0.19513083
29	0x3cfa3073	0.03054068
30	0x3c5b0eb1	0.013370202
31	0xbd35250a	-0.044224776
32	0x3d3db488	0.046314746
33	0x3aea12a7	0.0017858342
34	0xbdb267e6	-0.08711223
35	0xbd1e2e44	-0.03861834
36	0xbd9c6756	-0.07636897
37	0xbd813c4d	-0.063103296
38	0xbd9c5bda	-0.07634707
39	0x3d7c5216	0.06160172
40	0x3db5f352	0.088843
41	0x3c4ea79b	0.012613202
42	0x3bbfb9b2	0.005850994
43	0xbcc4a57a	-0.024004687
44	0xbdf49610	-0.11942685
45	0xbd8a0727	-0.067396455
46	0x3db72de2	0.08944298
47	0x3c3e79cc	0.011625718
48	0xbd93e68c	-0.07221708
49	0xbde635e4	-0.112407476
50	0xbe40c58f	-0.18825363
51	0x3d220502	0.039555557
52	0x3d804d3e	0.06264733
53	0x3e1dde10	0.15416741
54	0x3e34825c	0.17627853
55	0x3e0a30a7	0.13495122
56	0xbe20c207	-0.15699016
57	0x3e469d14	0.19395858
58	0xbd03ee27	-0.03220954
59	0xbced05d9	-0.028933452
60	0x3c2868c9	0.010278889
61	0xbe0079d8	-0.1254648
62	0x3c592a97	0.013254783
63	0x3e3cbc21	0.1843114
64	0x3d055a21	0.032556657
65	0xbe0c7ab8	-0.13718688
66	0xbd8924bf	-0.06696462
67	0x3c9d5357	0.019204779
68	0x3cef2258	0.029191181
69	0xbd6b03a1	-0.057376508
70	0xbe7095a2	-0.2349458
71	0x3c9c7443	0.019098407
72	0x3e1b759f	0.15181588
73	0xbdcd7d63	-0.10033681
74	0xbe311591	-0.17293383
75	0x3d890818	0.06690997
76	0x3d86ee1a	0.06588383
77	0xbda441df	-0.080203764
78	0x3d1f7d95	0.038938124
79	0x3e7417ef	0.23837255
80	0x3dcc11f4	0.09964362
81	0xbe09c163	-0.13452677
82	0x3d9e4c96	0.07729451
83	0x3e310786	0.17288026
84	0x3daf0fb6	0.085479185
85	0x3dbefdd2	0.09325756
86	0x3d9274e9	0.07151205
87	0x3b219fb8	0.002466185
88	0xbcdd55ec	-0.02701851
89	0xbdb171bf	-0.086642735
90	0x3cc8368a	0.024440069
91	0xbd526d57	-0.051373806
92	0xbe87de69	-0.26536873
93	0x3de428b8	0.11140579
94	0xbdd0058f	-0.1015731
95	0x3dc72a5c	0.09724876
96	0xbe0a6f53	-0.1351903
97	0xbc320163	-0.010864588
98	0x3d797991	0.06090695
99	0x3de3e1aa	0.111270264
100	0xbe11f65f	-0.1425414
101	0xbe1befc3	-0.1522818
102	0x3d4c1d33	0.049832534
103	0xbcb128c8	-0.021625891
104	0x3cadc1f7	0.021210654
105	0x3db201ed	0.086917736
106	0xbe02890e	-0.12747595
107	0xbc69fc15	-0.014281292
108	0x3d0fc57f	0.035100456
109	0xbe33842b	-0.17530887
110	0xbc0a8770	-0.008455142
111	0xbda199b7	-0.07890647
112	0x3cd15976	0.025555354
113	0xbdbeb1a8	-0.09311229
114	0x3ca95ab0	0.020673126
115	0x3e5b96fe	0.21444318
116	0xbe1cc566	-0.15309677
117	0xbd549f29	-0.0519096
118	0xbe0ffd78	-0.14061534
119	0xba1ddf8a	-0.00060223846
120	0xbdaed1b2	-0.0853609
121	0x3e3c0639	0.18361749
122	0xbdcbc41b	-0.099495135
123	0xbdc6aeff	-0.097013466
124	0x3dcd71ff	0.10031509
125	0xbe252798	-0.16128385
126	0xbe1f1453	-0.15535097
127	0xbe4bb144	-0.1989184
128	0x3c829549	0.015940325
129	0xba927e9d	-0.001117665
130	0x3d30ea6f	0.043192323
131	0xbdc23eb9	-0.0948462
132	0x3e1573d0	0.1459496
133	0x3e290c15	0.16508515
134	0x3d5d491e	0.054024808
135	0xbdcf03c7	-0.10108142
136	0x3e1f98c6	0.15585622
137	0x3d1cf6ab	0.03832118
138	0xbe0b21d3	-0.13587122
139	0xbdd49260	-0.10379481
140	0x3b2cb3f7	0.0026352385
141	0xbdb91bb0	-0.09038484
142	0xbd848c9e	-0.06472133
143	0xbd687a64	-0.056757346
144	0x3e5c52c3	0.21515946
145	0xbd7e96bd	-0.062155474
146	0xbdac9495	-0.08426777
147	0xbd3e12ce	-0.046404652
148	0x3da7a01d	0.08184836
149	0x3e14ab6d	0.14518519
150	0x3daf6fc1	0.08566237
151	0x3dfeb7fc	0.12437436
152	0xbd122034	-0.035675243
153	0xbd580f77	-0.052749123
154	0x3cf813c6	0.030282866
155	0xbe0a00cb	-0.13476865
156	0x3e48f5ee	0.19625065
157	0xbdd940a5	-0.10608033
158	0x3ddab566	0.1067913
159	0xbdc4fb4a	-0.09618242
160	0xbe067135	-0.13129123
161	0xbe2ef4e1	-0.17085601
162	0x3de2b6d9	0.11070032
163	0x3e092128	0.13391554
164	0xbe0fbe81	-0.14037515
165	0x3e29e4bb	0.1659116
166	0xbdf239e1	-0.11827446
167	0xbd876c77	-0.06612485
168	0xbd5fcdf7	-0.054639783
169	0x3de82c37	0.11336558
170	0x3ddb834d	0.10718403
171	0xbe482993	-0.1954711
172	0xbd953daf	-0.07287156
173	0x3e26af80	0.16277885
174	0xbd6e9d30	-0.058255374
175	0x3e0ecd53	0.13945512
176	0x3dc9daa2	0.09856154
177	0xbdfcac4e	-0.12337552
178	0x3db2d9f4	0.087329775
179	0xbd6526fc	-0.05594538
180	0x3e498485	0.19679458
181	0xbd1ac532	-0.037785716
182	0xbddd536a	-0.108069256
183	0x3df0a9c7	0.117511325
184	0x3e27be70	0.1638124
185	0x3b6f87ec	0.0036549522
186	0xbdff71fe	-0.12472914
187	0xbd6a24fa	-0.05716417
188	0x3db27156	0.08713023
189	0x3d5c5aca	0.05379752
190	0xbe22a02c	-0.15881413
191	0x3c0b6c78	0.008509748
192	0xbde5e9d1	-0.112262376
193	0xbde17836	-0.110092565
194	0xbdf8d945	-0.12150816
195	0x3df2636e	0.11835371
196	0xbd31ce7f	-0.04340982
197	0x3e334492	0.17506626
198	0x3e0b8e3f	0.13628481
199	0x3e169711	0.14706065
200	0x3d909b48	0.070608675
201	0x3d1bff61	0.038085345
202	0xbd71282b	-0.058876198
203	0x3d96ac79	0.07357115
204	0xba7f78af	-0.0009745461
205	0x3dac83fa	0.0842361
206	0x3e00b9b2	0.12570837
207	0xbdb60f9d	-0.08889697
208	0xbe03e786	-0.12881288
209	0x3de28450	0.11060393
210	0x3d9b3c94	0.07579914
211	0xbe43e8e0	-0.19131804
212	0x3e2efad3	0.1708787
213	0x3e0e4c16	0.13896212
214	0xbdaed037	-0.085358076
215	0xbc463cd9	-0.012099468
216	0x3dbbe99f	0.09175419
217	0xbd2be3c9	-0.04196528
218	0x3c969785	0.018382797
219	0x3dd1e1f6	0.10248177
220	0xbdeb0e2e	-0.11477314
221	0xbdd5b1a6	-0.104342744
222	0x3cc9e26f	0.024644105
223	0xbddb589e	-0.10710262
224	0x3e1f3286	0.15546617
225	0xbe888f92	-0.26672035
226	0xbd036a39	-0.032083724
227	0x3d829390	0.063758016
228	0xbcda29fd	-0.02663135
229	0x3d9f24f9	0.07770724
230	0xbc121763	-0.008916709
231	0xbd83e6b7	-0.0644049
232	0x3e1e7f87	0.15478335
233	0xbddf7956	-0.10911815
234	0xbd93c570	-0.072153926
235	0xbe2fcbd0	-0.17167592
236	0x397edb2e	0.00024304978
237	0xbda28acd	-0.079366304
238	0xbe1fc0de	-0.15600917
239	0xbe32c1c0	-0.17456722
240	0xbc946ce6	-0.018118333
241	0xbe09954f	-0.13435863
242	0xbd52d8de	-0.051476352
243	0x3dc9551f	0.09830689
244	0xbda98766	-0.08277778
245	0xbdc0c925	-0.09413365
246	0x3d0cff2c	0.03442304
247	0x3ccff68c	0.025386117
248	0xbd70a620	-0.05875218
249	0xbcd758e3	-0.026287502
250	0x3e231d3c	0.15929121
251	0x3d64ece0	0.055889964
252	0xbd67df1e	-0.056609266
253	0xbd98518c	-0.07437429
254	0xbd741980	-0.05959463
255	0x3e4456fc	0.19173807

model.2.bias f4 [9]
0	0x3c82c2d0	0.015962034
1	0xbe000737	-0.12502752
2	0x3e24d6aa	0.16097513
3	0x3e1b08c6	0.15140066
4	0x3d277900	0.04088688
5	0xbd2993ca	-0.04140071
6	0xbdf2fe79	-0.11864943
7	0xbd33d6eb	-0.043906134
8	0xbd2a02a3	-0.04150642
